ckpt/R10/NeuroTech-epoch=30-val_acc=0.91.ckpt (torch, 953765 bytes, 151 tensors)

model.conv1.weight f4 [64, 6, 7]
-0.07064728 0.0353948 -0.078600995 0.059509356 0.042965353 0.12961024 0.028077107 0.13434279
0.024597876 -0.07895285 -0.16743118 -0.13669941 -0.024547637 -0.05165002 -0.24454053 -0.20450085
-0.053365495 -0.007673521 0.09190659 0.21054491 0.24073248 -0.019636765 -0.15339845 -0.061370715
-0.022476466 0.005197797 -0.061624195 -0.06865612 0.11670972 0.005936777 0.13706863 0.13266541
-0.076421395 0.09010346 0.038443245 0.107303604 0.15726991 0.1584798 0.13392527 0.13449761
-0.006231866 0.08286651 -0.19379434 0.19846018 -0.177874 -0.12389782 0.3053587 -0.09489106
0.03972995 0.22186482 -0.36865714 -0.05049258 0.16201675 -0.12582143 0.18712717 -0.06246094
-0.030810528 0.014114474 -0.017994972 0.0428159 -0.077568986 0.15416288 -0.09310516 -0.044185285
0.08769077 -0.010059328 0.01225676 -0.00029432055 -0.007197345 -0.04268854 -0.008095049 -0.015922116
-0.02631433 0.036075123 -0.04925681 -0.0075008194 0.05772574 0.10771261 -0.045654867 0.023552803
0.11214055 0.024035081 -0.19556357 -0.0149714155 -0.025595939 -0.043972008 0.078948036 0.042080373
-0.06323356 0.22443901 -0.07606771 -0.23955686 0.102643356 -0.0035330607 0.14584032 0.15555297
0.04021929 -0.010817003 -0.16402365 0.053549007 -0.10113002 -0.10028356 -0.074069 -0.05463794
-0.020371761 -0.07033308 0.0054607363 -0.03295176 0.02535944 0.005183274 0.017232483 0.13127205
-0.015405458 -0.08830611 -0.07456562 0.014559282 0.0023528882 0.013704321 0.009285644 0.22514015
0.3310282 0.24554564 0.23755985 0.16814221 0.32881105 0.27990678 0.025395073 0.07565232
0.29649454 0.15659378 -0.1934892 -0.29171622 -0.03468555 -0.20591582 -0.13341056 -0.103481755
0.20734444 0.33360803 0.0015331222 -0.22990277 -0.012159189 0.04629689 -0.012520618 0.05096504
-0.014430323 0.07770454 -0.024055392 -0.09336882 -0.08368414 -0.12476106 0.04976827 0.092848614
-0.01849314 0.13048223 -0.030289581 0.068671025 0.13677387 -0.009491576 -0.09677658 -0.025436025
-0.048595663 -0.01765946 -0.0649776 -0.012164649 0.0020729513 0.022304865 0.056676667 -0.00932267
0.12938899 0.08034158 0.3181465 0.024221448 0.16233929 -0.033291917 0.12232086 0.16206424
-0.03423918 0.015382051 -0.01347026 0.28616688 0.10063368 0.074581586 -0.086411305 -0.21279883
-0.16791971 -0.21993926 -0.22666943 -0.21596715 0.15756755 -0.006049519 -0.024335789 0.014943684
0.009961556 0.106667235 -0.07389936 0.071938366 0.06602591 -0.110809326 0.070088886 0.025458016
-0.026577896 -0.036453065 -0.042367127 0.08195542 0.084467016 0.050495442 0.10061932 0.09308984
0.1666982 -0.0053263446 0.095733695 -0.026628517 0.15146206 0.28459892 0.0715671 0.07614215
0.008345351 0.1687707 0.13625616 0.1529794 0.015224423 -0.055845946 0.29272017 0.23666129
-0.09075687 -0.01967071 -0.07805801 -0.003936271 -0.025509654 0.016720008 -0.045859296 0.10498066
0.04741885 0.17009732 0.07748713 0.17753634 0.07710125 0.1739908 -0.0483565 0.008805505
0.045623742 0.034924153 -0.046378784 0.10792027 -0.040965315 -0.2302065 -0.18466206 -0.00082264416
-0.12612869 -0.04331181 -0.00035228347 0.011508518 0.48150375 0.10452202 0.09899709 -0.090565324
00000000: 85af 90bd 23fa 103d 8ff9 a0bd 15c0 733d
00000010: 70fc 2f3d 8cb8 043e f601 e63c 2891 093e
00000020: 7c81 c93c 08b2 a1bd 1473 2bbe eefa 0bbe
00000030: 2018 c9bc f98e 53bd d568 7abe ac68 51be
00000040: c795 5abd 2972 fbbb 8639 bc3d 1699 573e
00000050: 9382 763e 48dd a0bc 7c14 1dbe dc5f 7bbd
00000060: 9120 b8bc 4852 aa3b a769 7cbd 949b 8cbd
00000070: 8105 ef3d 4c89 c23b b85b 0c3e 71d9 073e
00000080: d282 9cbd 2a88 b83d aa76 1d3d fec1 db3d
00000090: 5d0b 213e 8748 223e b523 093e beb9 093e
000000a0: ae34 ccbb ebb5 a93d 0672 46be 2539 4b3e
000000b0: 9a24 36be 24be fdbd fa57 9c3e 3e56 c2bd
000000c0: dfbb 223d 8830 633e a1c0 bcbe 4fd1 4ebd
000000d0: b8e7 253e 55d7 00be 449e 3f3e 0bd7 7fbd
000000e0: 5c66 fcbc 6540 673c 316a 93bc ba5f 2f3d
000000f0: 7ddc 9ebd e0dc 1d3e ebad bebd a1fb 34bd
00000100: 3897 b33d e1cf 24bc 94d0 483c 094f 9ab9
00000110: b5d7 ebbb 2eda 2ebd 19a1 04bc 196f 82bc
00000120: 2691 d7bc 82c3 133d 82c1 49bd 6fc9 f5bb
00000130: d371 6c3d 6e98 dc3d 9900 3bbd cff1 c03c
00000140: f2a9 e53d 38e5 c43c d141 48be ab4a 75bc
00000150: 93ae d1bc fe1b 34bd 82af a13d 785c 2c3d
00000160: 9980 81bd 57d3 653e 63c9 9bbd 654e 75be
00000170: ae36 d23d ec8a 67bb 2a57 153e 4749 1f3e
00000180: fbbc 243d cd39 31bc d1f5 27be 3456 5b3d
00000190: 421d cfbd 7861 cdbd 7db1 97bd 08cc 5fbd
000001a0: aee2 a6bc ca0a 90bd faef b23b 6df8 06bd
000001b0: 9abe cf3c 74d8 a93b 232b 8d3c 2e6c 063e
000001c0: 2d67 7cbc d5d9 b4bd dcb5 98bd 0e8a 6e3c
000001d0: ea32 1a3b 1788 603c d022 183c 248b 663e
000001e0: 877c a93e 5170 7b3e e442 733e 792d 2c3e
000001f0: ec59 a83e f14f 8f3e 5409 d03c 9bef 9a3d
00000200: 22ce 973e 1f5a 203e 0822 46be d45b 95be
00000210: 6f12 0ebd 99db 52be c79c 08be 3eee d3bd
00000220: 1a52 543e acce aa3e 0bf3 c83a a26b 6bbe
00000230: 5637 47bc cfa1 3d3d 4723 4dbc b8c0 503d
00000240: 296d 6cbc 8f23 9f3d d00f c5bc 2738 bfbd
00000250: 9762 abbd ba82 ffbd d0d9 4b3d 6a27 be3d
00000260: ed7e 97bc 229d 053e db21 f8bc 65a3 8c3d
00000270: 730e 0c3e 8e82 1bbc cd32 c6bd 365f d0bc
00000280: 3f0c 47bd 92aa 90bc fa12 85bd 3c4e 47bc
00000290: 5ada 073b b1b8 b63c cb25 683d 1dbe 18bc
000002a0: 8c7e 043e 208a a43d 19e4 a23e 0f6c c63c
000002b0: 453c 263e 1b5d 08bd 5c83 fa3d 2bf4 253e
000002c0: 623e 0cbd ff04 7c3c 5eb2 5cbc 7784 923e
000002d0: 0819 ce3d 3bbe 983d 69f8 b0bd f0e7 59be
000002e0: 25f3 2bbe c237 61be 081c 68be 7e26 5dbe
000002f0: 6359 213e 0b3b c6bb d95b c7bc 5bd6 743c
00000300: cb35 233c 5a74 da3d 8c58 97bd 6c54 933d
00000310: 9838 873d 00f0 e2bd c38a 8f3d 548d d03c
00000320: e3b9 d9bc cf4f 15bd 2789 2dbd 3ed8 a73d
00000330: 0bfd ac3d 4fd4 4e3d 8111 ce3d e3a5 be3d
00000340: efb2 2a3e 9e88 aebb 0710 c43d 0c24 dabc
00000350: df18 1b3e f3b6 913e c691 923d 6af0 9b3d
00000360: f0ba 083c 3ad2 2c3e bc86 0b3e a2a6 1c3e
00000370: dc6f 793c b8be 64bd 6bdf 953e 5657 723e
00000380: bdde b9bd 7824 a1bc e1dc 9fbd d6fb 80bb
00000390: 9ff9 d0bc 66f8 883c f5d6 3bbd 1a00 d73d
000003a0: 453a 423d fe2d 2e3e 93b1 9e3d 16cc 353e
000003b0: 43e7 9d3d a52a 323e 7711 46bd f744 103c
000003c0: f6df 3a3d a10c 0f3d aef7 3dbd 4d05 dd3d
000003d0: 3fcb 27bd 41bb 6bbe 0d18 3dbe b7a6 57ba
000003e0: e127 01be b967 31bd b0b2 b8b9 398e 3c3c
000003f0: a987 f63e a40f d63d fcbe ca3d 507a b9bd

model.bn1.weight f4 [64]
0.7624028 0.9550875 0.8463337 0.84163535 0.8880447 0.82680786 0.9092659 0.8604428
0.8641411 0.8225159 0.79634196 1.1665587 1.0894417 0.8402133 0.85955274 0.92562807
0.8965023 0.81541246 0.89831316 0.7644306 0.6707327 1.018439 1.0346527 0.9467231
0.944914 0.9460018 0.9106102 0.92876613 0.8376466 0.80790013 0.77315944 0.91556567
0.77516794 1.1422997 0.67261714 1.0512239 0.8274293 0.912525 0.9349878 0.8493262
1.0658857 0.71724164 0.77096397 0.81447715 0.98284453 0.7091877 0.7919257 0.83717895
0.6154505 0.9421334 1.004184 0.90707874 0.83163935 0.90975505 0.7920508 0.8296459
0.75281096 0.8091999 0.89152473 0.766428 1.012768 0.918036 0.8344723 0.80168426
00000000: d42c 433f 9d80 743f 53a9 583f 6a75 573f
00000010: e656 633f aea9 533f a6c5 683f fb45 5c3f
00000020: 5a38 5d3f 6790 523f 11dd 4b3f cc51 953f
00000030: d372 8b3f 3818 573f a60b 5c3f f6f5 6c3f
00000040: 2d81 653f dfbe 503f daf7 653f b9b1 433f
00000050: 23b5 2b3f 365c 823f 806f 843f 725c 723f
00000060: e2e5 713f 2d2d 723f c01d 693f 9ec3 6d3f
00000070: 0270 563f 8bd2 4e3f c7ed 453f 8362 6a3f
00000080: 6871 463f e036 923f a330 2c3f 818e 863f
00000090: 68d2 533f 3d9b 693f 5c5b 6f3f 716d 593f
000000a0: f16e 883f 269d 373f e55d 453f 9381 503f
000000b0: b39b 7b3f 538d 353f a5bb 4a3f 5c51 563f
000000c0: 2a8e 1d3f a82f 713f 1a89 803f 5036 683f
000000d0: 51e6 543f b5e5 683f d7c3 4a3f ac63 543f
000000e0: 38b8 403f ba27 4f3f f73a 643f a034 443f
000000f0: 62a2 813f 6804 6b3f fa9f 553f 2e3b 4d3f

model.bn1.bias f4 [64]
-0.0555636 -0.19677073 -0.12559253 0.011616154 -0.20469406 -0.07309259 -0.10042087 -0.24592917
-0.12794554 -0.15269144 0.014907879 0.028088076 0.06219948 -0.053288728 -0.13141024 0.23229864
-0.14449012 0.0463823 0.08040287 -0.037573863 -0.17099933 0.057201665 0.07021503 -0.10656004
-0.058652867 0.037128527 -0.020915993 0.023606664 -0.026266498 -0.11756443 0.10640888 0.014951555
-0.09863714 0.14101708 -0.034044817 -0.02461994 -0.09404886 0.019976038 0.11988691 -0.08723851
0.08084126 -0.21799421 -0.2489022 -0.13670523 -0.010074207 0.049966995 -0.08847084 -0.08448209
-0.07774256 0.080271855 0.049178347 -0.05315986 0.08722357 -0.016852304 -0.031148773 0.070603125
-0.11905223 -0.051235225 -0.10823867 -0.028304715 0.04176607 0.18535443 -0.054032415 -0.017376395
00000000: a896 63bd 447e 49be 549b 00be ae51 3e3c
00000010: 529b 51be 91b1 95bd 75a9 cdbd dbd4 7bbe
00000020: 2804 03be 255b 1cbe 2d40 743c f718 e63c
00000030: e2c4 7e3d 4845 5abd 6890 06be b2df 6d3e
00000040: 38f5 13be 5efb 3d3d 43aa a43d 0de7 19bd
00000050: 731a 2fbe 4b4c 6a3d e6cc 8f3d 263c dabd
00000060: fd3d 70bd 1514 183d 0458 abbc c362 c13c
00000070: d72c d7bc 9fc5 f0bd e6ec d93d 5ef7 743c
00000080: 4502 cabd c866 103e 9472 0bbd c2af c9bc
00000090: b09c c0bd caa4 a33c 4587 f53d 1baa b2bd
000000a0: 1a90 a53d e039 5fbe 38e0 7ebe 75fc 0bbe
000000b0: 490e 25bc 31aa 4c3d 3330 b5bd f204 adbd
000000c0: 7e37 9fbd 9265 a43d 3c6f 493d 27be 59bd
000000d0: 45a2 b23d d80d 8abc b62b ffbc 5f98 903d
000000e0: a8d1 f3bd 07dc 51bd 3cac ddbd 4adf e7bc
000000f0: e612 2b3d 8dcd 3d3e 1851 5dbd f158 8ebc

model.bn1.running_mean f4 [64]
0.34449452 -0.04287506 0.80455536 -0.030466294 0.50685954 0.8037094 1.3476102 0.52004653
-0.9924521 -0.1910831 0.8530462 0.009256882 -0.018748797 0.6454054 -0.59428436 -0.08620408
0.48378876 -1.0173575 -0.21746005 -0.1698858 0.33665818 -0.5765128 1.1920625 0.59731305
0.05989565 0.014957978 -0.25390574 -0.08440165 0.48553073 0.60762155 0.33963546 0.7460643
-0.28596637 0.050097696 0.12775753 -0.024775034 -0.39706603 1.2892578 -0.2356479 0.2035402
0.03512805 -0.27378464 -0.6441647 0.7731044 0.17428441 -0.4040801 0.025383208 -0.17639141
-0.28370762 -0.07834801 0.034708362 -1.2329395 -0.20970556 -1.0921361 0.24434789 0.13672417
-0.3620203 -0.05523902 0.68959564 -0.026621314 -1.5765549 -0.3141621 -1.1808193 -0.69731086
00000000: 9661 b03e c29d 2fbd 57f7 4d3f 7394 f9bc
00000010: 8cc1 013f e6bf 4d3f 7e7e ac3f c521 053f
00000020: 5711 7ebf 4aab 43be 3c61 5a3f 2daa 173c
00000030: 1497 99bc 4a39 253f 0523 18bf c48b b0bd
00000040: 29b3 f73e c538 82bf d9ad 5ebe 8bf6 2dbe
00000050: 765e ac3e 5896 13bf 8195 983f 82e9 183f
00000060: 2455 753d 4f12 753c efff 81be c6da acbd
00000070: 7c97 f83e 168d 1b3f b3e4 ad3e 12fe 3e3f
00000080: 2f6a 92be 3e33 4d3d dfd2 023e 03f5 cabc
00000090: 3d4c cbbe 6606 a53f af4d 71be d86c 503e
000000a0: 6ee2 0f3d 802d 8cbe fae7 24bf 2cea 453f
000000b0: 9d77 323e 96e3 cebe 72f0 cf3c f39f 34be
000000c0: 2042 91be ec74 a0bd 5b2a 0e3d f6d0 9dbf
000000d0: 0ebd 56be 1ecb 8bbf 5536 7a3e 6c01 0c3e
000000e0: ba5a b9be 5042 62bd 5789 303f f114 dabc
000000f0: 8dcc c9bf dbd9 a0be 1625 97bf f782 32bf

model.bn1.running_var f4 [64]
0.060814664 0.0008309384 0.20002781 0.0031469106 0.06181665 0.09198414 0.04794639 0.06215341
0.29432282 0.10658881 0.12804538 0.0025787172 0.0035979892 0.05884141 0.06783452 0.010294702
0.015560533 0.105928175 0.005445991 0.039154362 0.04755509 0.047557846 0.0786789 0.047479145
0.0014792396 0.004028786 0.12003958 0.0048918617 0.07806048 0.08713948 0.058065593 0.056073554
0.09656395 0.008075844 0.095675655 0.0020083028 0.053055927 0.104928255 0.0095280465 0.015965475
0.0029718573 0.04073548 0.24182396 0.033950772 0.061106868 0.10642823 0.029526182 0.051380012
0.11071125 0.09112584 0.0010867581 0.07399931 0.044279255 0.15605618 0.034410834 0.046250053
0.07505711 0.08114264 0.07799819 0.08103213 0.08055648 0.028459758 0.051556192 0.0811661
00000000: cc18 793d 55d3 593a 17d4 4c3e 663c 4e3b
00000010: 7533 7d3d 2e62 bc3d 6f63 443d 9394 7e3d
00000020: 7bb1 963e 3c4b da3d 541e 033e b2ff 283b
00000030: 3ecc 6b3b b103 713d d3ec 8a3d 1cab 283c
00000040: 9bf1 7e3c dff0 d83d 4974 b23b 5360 203d
00000050: 20c9 423d 04cc 423d 6722 a13d 7e79 423d
00000060: 0be3 c13a e803 843b 50d7 f53d e94b a03b
00000070: 2cde 9f3d 2f76 b23d 30d6 6d3d 62ad 653d
00000080: 52c3 c53d 8b50 043c 99f1 c33d bb9d 033b
00000090: 2c51 593d a0e4 d63d 861b 1c3c 07ca 823c
000000a0: 7ec3 423b 3fda 263d b3a0 773e f70f 0b3d
000000b0: 324b 7a3d 0bf7 d93d e4e0 f13c d973 523d
000000c0: 94bc e23d 2fa0 ba3d 8d71 8e3a f38c 973d
000000d0: 2a5e 353d 31cd 1f3e 60f2 0c3d b270 3d3d
000000e0: 8bb7 993d 1d2e a63d 84bd 9f3d 2cf4 a53d
000000f0: ccfa a43d 7024 e93c 962c 533d 6a3a a63d

model.layer1.0.conv1.weight f4 [32, 64, 3]
-0.15244782 0.06930152 0.028223846 -0.14953348 0.09712106 0.09733109 0.18126291 0.1404715
0.3512233 0.11302101 -0.016013043 -0.3028738 -0.0068957843 0.12327178 0.27246943 -0.10334793
-0.12542112 -0.0082113985 -0.046573594 0.100224175 0.101974644 0.13063754 0.06972485 -0.10055139
0.1285736 0.0024287892 -0.008137647 -0.36150733 0.030645281 0.11214164 0.0068508033 -0.023394583
-0.09235086 0.13702068 0.05379795 0.120396756 0.059638787 0.050847754 0.006033887 -0.05729053
-0.020283883 0.24326979 -0.1694862 0.016393209 -0.10435547 -0.06486739 -0.32796907 0.028074067
0.0060624266 0.08122085 -0.07327657 0.047664914 -0.11822545 -0.06538799 0.09195361 0.11675973
-0.030569196 0.17822282 -0.06636469 -0.13864903 -0.16383038 0.1881743 0.07192654 -0.24962002
0.16983487 0.056938343 -0.20829324 -0.28696516 -0.19653997 -0.16377349 -0.16059837 0.062200207
0.14759967 -0.19434497 0.18232293 -0.18098748 0.037966225 0.06283662 -0.06909158 0.03200619
0.10040863 -0.17063518 -0.12161998 0.09192274 -0.24642198 -0.0014496959 0.08668439 0.04986542
-0.22974785 0.118149996 0.008778321 0.08619223 0.04338082 -0.060625125 -0.004199494 0.037469253
-0.2012383 0.061770715 -0.124092 -0.19601065 -0.4462219 -0.34212044 -0.017573139 0.09675768
0.009153095 -0.056743406 0.27505732 -0.21485381 0.1357512 0.1561561 -0.28212193 0.017664101
-0.17047276 0.28411987 -0.032002036 0.260322 -0.14882271 -0.13153821 0.093779586 0.018749788
0.044709086 -0.07046623 0.11446368 -0.04222296 0.14153671 0.21092866 0.08008456 0.05881264
0.008472542 -0.12232231 0.05505236 -0.16208768 0.1969091 0.015129607 -0.21639742 0.004761033
-0.006673255 -0.043097645 -0.07725818 0.18593068 -0.2599159 -0.048249435 0.051922247 -0.06323334
0.013703744 -0.029363686 -0.06947384 0.05696798 -0.0069923913 0.066960335 0.12766905 0.41791263
-0.2108394 0.113882914 0.051588647 0.19955227 -0.005169886 0.13141161 -0.18034677 -0.090527475
0.105307095 -0.019686412 -0.08959543 -0.16825537 0.06130892 -0.020601038 0.16266738 -0.05318971
0.25789666 0.26235774 -0.12679107 -0.22658159 -0.06292584 -0.04776801 0.113803364 0.07555005
0.024188075 0.07658964 -0.10321998 0.035701882 -0.21800819 0.31957248 0.08625065 -0.4530603
0.09421059 0.0038463457 -0.23013592 0.14701925 -0.0017453599 -0.12236308 -0.045550063 -0.103501484
0.1528742 0.15136841 0.21636808 -0.066738926 -0.22788191 0.026263487 0.23666365 0.09189521
-0.07946845 -0.03513309 0.223509 0.011827714 0.18255101 -0.12105321 -0.091512956 -0.16721374
-0.12612498 -0.17827643 0.12444879 0.07465021 -0.2972931 -0.12122074 0.13580209 -0.06370615
-0.09658673 -0.32930854 -0.266521 0.085402064 0.023090236 -0.051657435 -0.14001384 -0.018481046
-0.016301364 0.08353538 -0.2882016 0.3169601 -0.13692199 -0.018609472 -0.13827641 0.1626122
-0.2360686 0.024333742 -0.10254493 -0.17936277 -0.17928652 -0.13921309 0.2232606 0.27096874
0.028725896 0.14601538 -0.22275497 -0.2851785 0.12366749 0.008965233 -0.06286818 -0.030265762
0.16297174 -0.39750895 0.04100802 -0.023221891 -0.14691068 0.0042815343 -0.1159552 0.01332725
00000000: 481b 1cbe f5ed 8d3d b235 e73c 4e1f 19be
00000010: 68e7 c63d 8655 c73d fc9c 393e c3d7 0f3e
00000020: 8ad3 b33e 8f77 e73d c92d 83bc 4612 9bbe
00000030: 08f6 e1bb ea75 fc3d 1d81 8b3e 14a8 d3bd
00000040: 656e 00be 1a89 06bc f4c3 3ebd 5542 cd3d
00000050: 15d8 d03d d9c5 053e e7cb 8e3d e3ed cdbd
00000060: cca8 033e 522c 1f3b c453 05bc 7d17 b9be
00000070: d00b fb3c 84aa e53d b47c e03b ffa5 bfbc
00000080: 7322 bdbd 264f 0c3e 3d5b 5c3d 9392 f63d
00000090: cd47 743d bc45 503d eab7 c53b 7aa9 6abd
000000a0: 632a a6bc b71b 793e ca8d 2dbe 0d4b 863c
000000b0: 52b8 d5bd 32d9 84bd 90eb a7be 96fb e53c
000000c0: 52a7 c63b 1e57 a63d 0712 96bd 493c 433d
000000d0: 2f20 f2bd 23ea 85bd 2d52 bc3d ba1f ef3d
000000e0: 406c fabc 0b80 363e 36ea 87bd 03fa 0dbe
000000f0: 27c3 27be c4b0 403e 394e 933d 649c 7fbe
00000100: 31e9 2d3e 2e38 693d d34a 55be 19ed 92be
00000110: c641 49be 3db4 27be e673 24be a5c5 7e3d
00000120: 5e24 173e 5e02 47be ddb2 3a3e c854 39be
00000130: 7982 1b3d 7cb0 803d e37f 8dbd ec18 033d
00000140: 0aa3 cd3d fdba 2ebe e513 f9bd fd41 bc3d
00000150: 0b56 7cbe b903 beba 9687 b13d af3f 4c3d
00000160: 0543 6bbe a0f8 f13d f2d2 0f3c 8d85 b03d
00000170: 16b0 313d 0d52 78bd e99b 89bb 5c79 193d
00000180: 6a11 4ebe 4a03 7d3d f223 febd 04b7 48be
00000190: 3277 e4be 692a afbe 8bf5 8fbc e428 c63d
000001a0: ddf6 153c c66b 68bd 50d4 8c3e a302 5cbe
000001b0: 5d02 0b3e 62e7 1f3e 4972 90be 4eb4 903c
000001c0: 6990 2ebe 2978 913e 9114 03bd ed48 853e
000001d0: fb64 18be f4b1 06be 830f c03d 2899 993c
000001e0: e020 373d 9950 90bd ef6b ea3d fcf1 2cbd
000001f0: 00ef 103e affd 573e 6003 a43d 86e5 703d
00000200: 6bd0 0a3c 1f84 fabd 957e 613d 50fa 25be
00000210: 8aa2 493e 2ce2 773c 4997 5dbe 7102 9c3b
00000220: 52ab dabb 2887 30bd 8939 9ebd 9d64 3e3e
00000230: b213 85be 33a1 45bd 6cac 543d 7b80 81bd
00000240: ab85 603c 1d8c f0bc 4d48 8ebd 4257 693d
00000250: 6e20 e5bb 8022 893d adbb 023e a5f8 d53e
00000260: 49e6 57be 723b e93d 9e4e 533d 6e57 4c3e
00000270: 2668 a9bb c490 063e d3ac 38be 7866 b9bd
00000280: 3fab d73d 6645 a1bc cf7d b7bd 234b 2cbe
00000290: 101f 7b3d 82c3 a8bc 4792 263e 74dd 59bd
000002a0: 080b 843e c153 863e 85d5 01be 0105 68be
000002b0: 43df 80bd 64a8 43bd bd11 e93d fcb9 9a3d
000002c0: 1226 c63c 07db 9c3d ff64 d3bd 233c 123d
000002d0: 8a3d 5fbe 019f a33e 2ea4 b03d 85f7 e7be
000002e0: 7bf1 c03d f912 7c3b c0a8 6bbe 378c 163e
000002f0: 8fc4 e4ba 7f99 fabd b492 3abd 96f8 d3bd
00000300: 0e8b 1c3e 5200 1b3e 988f 5d3e 6bae 88bd
00000310: e059 69be 8626 d73c f557 723e 8e33 bc3d
00000320: 5bc0 a2bd b7e7 0fbd 8bdf 643e 07c9 413c
00000330: a7ee 3a3e bfea f7bd 256b bbbd 143a 2bbe
00000340: e826 01be 198e 36be 02df fe3d 36e2 983d
00000350: cd36 98be 9442 f8bd b40f 0b3e 5f78 82bd
00000360: 43cf c5bd 219b a8be 7175 88be 47e7 ae3d
00000370: bc27 bd3c bf96 53bd ca5f 0fbe 9065 97bc
00000380: 708a 85bc 9914 ab3d 298f 93be 9848 a23e
00000390: 4735 0cbe e472 98bc 5598 0dbe d083 263e
000003a0: f8bb 71be 8e57 c73c 1403 d2bd e0aa 37be
000003b0: e396 37be e08d 0ebe 6d9e 643e 6abc 8a3e
000003c0: 9252 eb3c 0e85 153e e119 64be eb02 92be
000003d0: 6245 fd3d eae2 123c 08c1 80bd e7ef f7bc
000003e0: 10e2 263e 4b86 cbbe 07f8 273d d63b bebc
000003f0: c16f 16be 1d4c 8c3b eb79 edbd 8a5a 5a3c

model.layer1.0.bn1.weight f4 [32]
0.92435056 0.8962054 0.96907926 0.9232957 1.0366842 0.9132162 0.8258534 0.9377971
0.8598991 0.82677454 0.8442518 0.947989 0.99889046 0.78064734 0.96183383 0.84207
0.87271273 0.8467353 0.96504694 0.7932058 0.8551157 0.8729662 0.80183464 0.9190945
0.97531563 0.85271376 0.81283134 0.8547942 0.9198672 1.0346314 0.91378796 0.9314278
00000000: 3da2 6c3f b86d 653f 9415 783f 1b5d 6c3f
00000010: 11b2 843f 89c8 693f 216b 533f 7913 703f
00000020: 5922 5c3f 7fa7 533f e320 583f 68af 723f
00000030: 49b7 7f3f 81d8 473f be3a 763f e691 573f
00000040: 1a6a 5f3f a5c3 583f 510d 773f 890f 4b3f
00000050: dde8 5a3f b67a 5f3f 0945 4d3f c749 6b3f
00000060: 49ae 793f 734b 5a3f b715 503f cbd3 5a3f
00000070: 6b7c 6b3f cd6e 843f 02ee 693f 0d72 6e3f

model.layer1.0.bn1.bias f4 [32]
-0.13291098 -0.10370564 -0.0052307234 0.008226543 -0.08892475 -0.14304072 -0.025267698 -0.18530397
-0.00504502 0.029362628 -0.11885588 0.07525255 0.025687184 0.08719095 0.0368599 -0.023102673
-0.08710593 -0.12733094 0.016425591 0.1463099 -0.037470095 -0.09511627 0.14029492 0.030147908
0.057114106 -0.083194934 -0.07632532 -0.17378 0.04906752 0.14537825 -0.06424936 0.09902375
00000000: d119 08be 9f63 d4bd 7d66 abbb 9fc8 063c
00000010: 2e1e b6bd 4479 12be 34fe cebc 53c0 3dbe
00000020: b250 a5bb e589 f03c b66a f3bd 021e 9a3d
00000030: ee6d d23c 2b91 b23d 68fa 163d d141 bdbc
00000040: 9864 b2bd 0b63 02be f68e 863c 43d2 153e
00000050: 3e7a 19bd 52cc c2bd 79a9 0f3e bff8 f63c
00000060: 7bf0 693d 1b62 aabd 7350 9cbd 62f3 31be
00000070: 06fb 483d 09de 143e 2b95 83bd f7cc ca3d

model.layer1.0.bn1.running_mean f4 [32]
-1.0148942 -2.2332184 -3.595547 -1.5982764 -0.9048953 -1.9263374 1.5736052 -1.7968254
1.2052138 -1.1506242 0.26816744 -2.0406787 1.1477445 1.8518037 -3.1325781 -0.7791918
-0.47467375 -1.0016897 -0.5173111 1.3270262 -1.4461267 2.233375 -1.0026731 0.022942187
0.08408186 -2.1565375 -0.18023519 -0.27893215 2.240346 -0.026102368 -0.4768374 -1.263537
00000000: 0ee8 81bf 0ded 0ec0 711d 66c0 5294 ccbf
00000010: 38a7 67bf 3992 f6bf e56b c93f 60fe e5bf
00000020: 7244 9a3f a747 93bf 3e4d 893e 7b9a 02c0
00000030: 4be9 923f e707 ed3f 297c 48c0 1d79 47bf
00000040: 7008 f3be 5e37 80bf 806e 04bf ffdb a93f
00000050: ae1a b9bf 9eef 0e40 9857 80bf 41f1 bb3c
00000060: 1c33 ac3d b604 0ac0 938f 38be 32d0 8ebe
00000070: d461 0f40 a2d4 d5bc 0824 f4be 95bb a1bf

model.layer1.0.bn1.running_var f4 [32]
1.6978545 2.8937852 4.3740196 2.3757477 2.5087209 3.0294058 3.06438 2.1688845
2.643656 4.2276692 4.0299287 4.0136795 1.543197 2.1673424 4.026853 2.7582197
3.09345 3.3962812 1.8071319 3.2197037 2.3022153 3.1838183 3.2327251 3.3307905
1.4015033 2.4867835 5.498717 3.0419164 3.3532434 2.2604482 2.1183312 2.9358988
00000000: 4c53 d93f c733 3940 f8f7 8b40 400c 1840
00000010: e28e 2040 c9e1 4140 cd1e 4440 01cf 0a40
00000020: a931 2940 1149 8740 2df5 8040 1070 8040
00000030: 7b87 c53f bdb5 0a40 fbdb 8040 ac86 3040
00000040: 16fb 4540 ac5c 5940 1950 e73f a00f 4e40
00000050: 7f57 1340 aec3 4b40 f8e4 4e40 ac2b 5540
00000060: 7664 b33f 7627 1f40 7df5 af40 c2ae 4240
00000070: 8a9b 5640 2fab 1040 bd92 0740 c4e5 3b40

model.layer1.0.conv2.weight f4 [32, 32, 3]
0.33781245 -0.2600666 -0.16385637 -0.035114538 0.44543368 -0.0041204095 -0.10547164 0.06215175
0.1909772 -0.012123466 0.1004784 0.19668913 -0.112420954 -0.006150019 0.104227714 0.013447776
-0.11981193 0.023301527 -0.029265242 -0.21155442 0.06778907 0.24824215 0.03882979 0.26724675
0.3647136 0.17750147 -0.37288138 -0.047848865 0.0029945297 0.2778111 -0.22676311 0.17284475
-0.048709653 -0.09434318 -0.23581901 0.09112983 -0.059507005 0.021465769 0.09088301 -0.003023826
-0.0014423705 0.20558465 -0.15852702 -0.11438996 0.10403562 0.21163428 -0.1857337 -0.07342915
-0.014229498 -0.23963101 0.19174474 0.07079925 0.021931825 -0.12453863 -0.2247073 -0.12521465
-0.036884513 -0.44103006 -0.093038715 -0.025244296 0.072052404 0.18836366 0.01569325 0.10652168
0.013700867 -0.22401622 -0.21055461 -0.23148581 0.056569748 -0.18353713 -0.07314503 0.013725114
-0.04717557 -0.017520638 -0.37943995 -0.18221794 0.27608564 0.047134623 0.1729521 -0.13287091
0.17516966 0.05335561 0.37591496 0.22253196 0.020994624 -0.12119385 0.037475653 0.323258
0.28556538 -0.17843099 0.0944815 0.048411246 0.030092092 0.014592045 0.07733754 -0.08393624
-0.19556911 -0.08430301 0.12171793 0.05660961 0.19511193 -0.1546193 -0.0665081 -0.17686392
-0.3788168 -0.1430912 0.09847048 -0.12866862 0.38750538 0.14819947 -0.5223085 -0.3969555
-0.13459252 -0.07335994 0.1386177 0.08899653 0.1263632 -0.23884338 0.059457634 -0.2081652
0.05426866 0.061480474 -0.044335846 -0.0877278 -0.35691634 -0.061847966 0.058285225 0.114239916
-0.112577446 0.10207221 0.2925567 -0.14653046 -0.09284349 0.080145635 0.039538085 0.16251548
0.010823805 -0.07724842 -0.027422985 0.13211296 -0.077831514 0.059029628 0.08080229 -0.12168126
0.34906274 -0.04010695 -0.26227766 -0.2101446 0.033699155 0.0008384741 -0.069983594 0.014391492
0.12207072 -0.1747848 -0.28073087 -0.4685208 0.26125506 0.13706106 -0.05720735 -0.07050921
0.15671147 -0.15161066 -0.08076076 0.04844905 0.19485615 0.20776002 -0.118553616 -0.16054687
-0.020575669 0.07040429 0.0783939 -0.022561973 0.040824883 -0.023817612 0.18553632 0.33095485
-0.2649087 -0.05058648 -0.01737751 0.16921706 0.010788426 0.08062928 0.0065347385 -0.22954775
-0.14832863 0.18726039 -0.055201523 0.19974878 -0.1183035 -0.064870104 -0.037455063 0.034803513
-0.073442295 0.04979229 0.14232424 -0.07180742 -0.106928796 -0.30523124 -0.010445275 -0.10492015
0.0922121 -0.061693724 0.21658656 -0.18156183 -0.15433547 -0.19589622 0.02628664 -0.044651464
0.084651165 0.16403319 0.14027946 -0.0366947 0.31932774 -0.0519613 -0.24223466 0.0815135
-0.35444802 0.03641041 0.17353263 0.040414475 -0.09151921 0.096472226 0.28171697 0.04161689
0.03936158 -0.054147728 -0.03029445 0.13884623 0.32184044 -0.40318456 -0.20185402 0.008621412
-0.2111018 -0.005831433 0.24327584 0.40002537 -0.004710824 -0.36538142 -0.18669434 0.17463863
0.13994044 -0.042950243 0.022542685 0.03252484 -0.15252647 0.21085978 -0.1264661 -0.24814573
0.057176087 0.17671901 0.029379332 0.0340848 -0.03246543 0.0723273 0.24884903 0.13431016
00000000: c1f5 ac3e 7327 85be f7c9 27be 43d4 0fbd
00000010: e20f e43e 8004 87bb 8401 d8bd d592 7e3d
00000020: 878f 433e 80a1 46bc 9fc7 cd3d e068 493e
00000030: f53c e6bd 1986 c9bb 5775 d53d 1054 5c3c
00000040: f55f f5bd d8e2 be3c a9bd efbc b9a1 58be
00000050: ffd4 8a3d 3133 7e3e fc0b 1f3d 91d4 883e
00000060: bebb ba3e f2c2 353e 4fea bebe 2cfd 43bd
00000070: df3f 443b 423d 8e3e 9734 68be 37fe 303e
00000080: c683 47bd ff36 c1bd 8a7a 71be 47a2 ba3d
00000090: 9ebd 73bd fbd8 af3c df20 ba3d 622b 46bb
000000a0: ec0d bdba c884 523e e854 22be 4945 eabd
000000b0: a110 d53d a8b6 583e fa30 3ebe 0662 96bd
000000c0: d722 69bc d561 75be bc58 443e 32ff 903d
000000d0: 5faa b33c 1c0e ffbd ac19 66be 4538 00be
000000e0: 3714 17bd b1ce e1be 158b bebd 20cd cebc
000000f0: 3690 933d 67e2 403e 218f 803c 0a28 da3d
00000100: 9a79 603c 8264 65be a19b 57be 9e0a 6dbe
00000110: aeb5 673d 28f1 3bbe 10cd 95bd 4ddf 603c
00000120: 2c3b 41bd 7187 8fbc f445 c2be 5797 3abe
00000130: 195b 8d3e 3c10 413d 5b1a 313e 500f 08be
00000140: ad5f 333e 6a8b 5a3d ed77 c03e 6bdf 633e
00000150: ebfc ab3c 7b34 f8bd 1280 193d 1382 a53e
00000160: a035 923e 9db6 36be 847f c13d df4a 463d
00000170: b183 f63c 7913 6f3c 2563 9e3d c3e6 abbd
00000180: 4543 48be 0ea7 acbd 4047 f93d 7adf 673d
00000190: 6ccb 473e 8654 1ebe 6635 88bd d11b 35be
000001a0: 47f4 c1be 8086 12be e4aa c93d b5c1 03be
000001b0: 1b67 c63e 9ac1 173e 03b6 05bf c03d cbbe
000001c0: 9fd2 09be bc3d 96bd ccf1 0d3e d043 b63d
000001d0: 5b65 013e 5c93 74be d989 733d 4229 55be
000001e0: d048 5e3d f3d2 7b3d 8199 35bd a2aa b3bd
000001f0: bdbd b6be 4b54 7dbd 7dbc 6e3d 9ef6 e93d
00000200: 018f e6bd 3c0b d13d fec9 953e 150c 16be
00000210: ba24 bebd 6523 a43d b0f2 213d 756a 263e
00000220: 5456 313c 6b34 9ebd 2ba6 e0bc 9f48 073e
00000230: 2166 9fbd 0dc9 713d ac7b a53d 0634 f9bd
00000240: 5ab8 b23e 2f47 24bd 4249 86be 2530 57be
00000250: 2008 0a3d 0bcd 5b3a 8f53 8fbd 4bca 6b3c
00000260: 3700 fa3d c9fa 32be f5bb 8fbe f5e1 efbe
00000270: 39c3 853e bc59 0c3e 4152 6abd 2267 90bd
00000280: f978 203e d33f 1bbe e665 a5bd 8372 463d
00000290: 5f88 473e 0bbf 543e 3dcc f2bd 6666 24be
000002a0: 4e8e a8bc 2030 903d fb8c a03d e3d3 b8bc
000002b0: fe37 273d 271d c3bc 3cfd 3d3e ea72 a93e
000002c0: 1da2 87be c533 4fbd 485b 8ebc 3d47 2d3e
000002d0: f0c1 303c f720 a53d 5c21 d63b 910e 6bbe
000002e0: 76e3 17be 30c1 3f3e fe1a 62bd f28a 4c3e
000002f0: 1b49 f2bd 9eda 84bd 7b6a 19bd 218e 0e3d
00000300: ea68 96bd 00f3 4b3d 72bd 113e c50f 93bd
00000310: 7cfd dabd 4547 9cbe a922 2bbc 60e0 d6bd
00000320: b3d9 bc3d 8fb2 7cbd dec8 5d3e 58eb 39be
00000330: 1e0a 1ebe 0599 48be 1457 d73c 74e4 36bd
00000340: 975d ad3d 51f8 273e 6ba5 0f3e 2f4d 16bd
00000350: ed7e a33e 5fd5 54bd 5d0c 78be 8df0 a63d
00000360: 367a b5be 1523 153d 8ab2 313e a689 253d
00000370: 6c6e bbbd 3b93 c53d 353d 903e 7976 2a3d
00000380: 9c39 213d 02ca 5dbd 112c f8bc b52d 0e3e
00000390: 45c8 a43e 356e cebe d2b2 4ebe d340 0d3c
000003a0: 122b 58be 9b15 bfbb 4d1d 793e 20d0 cc3e
000003b0: 425d 9abb 4613 bbbe cd2c 3fbe 78d4 323e
000003c0: 8c4c 0f3e 98ec 2fbd 70ab b83c c438 053d
000003d0: e62f 1cbe a0eb 573e 5480 01be ea19 7ebe
000003e0: 7931 6a3d d4f5 343e edac f03c 819c 0b3d
000003f0: 79fa 04bd 5620 943d 48d2 7e3e 9a88 093e

model.layer1.0.bn2.weight f4 [32]
1.0014467 0.9186211 0.99815667 0.9129758 0.89816517 1.1278349 0.84739727 0.96901006
1.0493976 0.849218 0.93637896 0.99632025 0.9707976 0.8613435 1.0017521 0.9180863
0.94295657 0.8834547 0.9077059 1.0218185 0.8013477 0.90901667 1.0244898 0.8763648
1.0078386 0.9830994 0.8875521 0.9946574 0.8999622 0.8948689 0.93484163 0.8555937
00000000: 682f 803f c12a 6b3f 3287 7f3f c8b8 693f
00000010: 27ee 653f e55c 903f 07ef 583f 0b11 783f
00000020: a952 863f 5a66 593f 88b6 6f3f d80e 7f3f
00000030: 3186 783f 0281 5c3f 6a39 803f b407 6b3f
00000040: 9a65 713f 162a 623f 6a5f 683f f3ca 823f
00000050: 1f25 4d3f 51b5 683f 7b22 833f 7259 603f
00000060: db00 813f 67ac 7b3f 9d36 633f dea1 7e3f
00000070: ec63 663f 2116 653f c851 6f3f 3008 5b3f

model.layer1.0.bn2.bias f4 [32]
0.045814294 0.05634612 -0.07741074 -0.030907432 -0.03754145 -0.02468789 -0.04218948 -0.10403573
0.1070495 -0.003598032 -0.11291455 0.006091468 0.0026254228 -0.05583953 -0.13096179 -0.019113412
-0.05705268 0.031122059 0.018296573 0.102964394 -0.009096675 -0.03081343 -0.016838286 -0.005618495
0.006159572 0.06769449 0.027433077 -0.01832772 0.042988624 0.080506876 -0.06597204 -0.07198199
00000000: c5a7 3b3d 30cb 663d 8689 9ebd 9531 fdbc
00000010: 10c5 19bd 423e cabc e0ce 2cbd af10 d5bd
00000020: c53c db3d f6cc 6bbb be3f e7bd f09a c73b
00000030: 490f 2c3b feb7 64bd d91a 06be bb93 9cbc
00000040: 12b0 69bd b0f3 fe3c b2e2 953c ffde d23d
00000050: 380a 15bc 726c fcbc 72f0 89bc 5a1b b8bb
00000060: 3cd6 c93b 69a3 8a3d 55bb e03c 0424 96bc
00000070: d714 303d cae0 a43d 591c 87bd 4b6b 93bd

model.layer1.0.bn2.running_mean f4 [32]
0.085619725 -0.600949 -0.045526233 1.1278703 -0.4151834 0.1717706 -0.29356927 -0.85370326
-0.04250487 -0.48240098 -0.7923125 -0.288416 -0.43883547 1.2508192 0.01747081 -0.44597656
0.15143397 0.004996274 0.20499116 0.41881394 0.096974395 -0.2223585 0.7659397 -0.38654974
-0.07773485 -1.0395857 0.16855653 -0.23778157 0.39617932 0.3425175 0.09227098 0.29047793
00000000: 6559 af3d cbd7 19bf b779 3abd 0e5e 903f
00000010: eb92 d4be a2e4 2f3e b64e 96be 4c8c 5abf
00000020: 9619 2ebd 43fd f6be fed4 4abf 43ab 93be
00000030: 0baf e0be d81a a03f f21e 8f3c 0a57 e4be
00000040: 8211 1b3e c9b7 a33b 34e9 513e c86e d63e
00000050: 839a c63d f2b1 63be a014 443f d9e9 c5be
00000060: 7333 9fbd 2511 85bf 159a 2c3e 037d 73be
00000070: 04d8 ca3e 745e af3e 91f8 bc3d 86b9 943e

model.layer1.0.bn2.running_var f4 [32]
0.9478833 1.3048528 0.62571913 0.96839637 0.74715805 0.64113736 0.53440976 1.1309581
0.69838 0.84619707 0.64567375 0.6690036 0.6498307 0.8356495 0.6931727 0.54864794
0.96053356 0.88565326 0.6476472 0.7557794 1.0253446 1.2452849 1.0194232 0.5790864
0.7350091 0.6413874 0.83617723 0.6006704 0.94833785 0.86726505 1.026646 1.4801347
00000000: 7ba8 723f 6b05 a73f 212f 203f d3e8 773f
00000010: c045 3f3f 9421 243f 14cf 083f 3cc3 903f
00000020: 08c9 323f 5fa0 583f e04a 253f d243 2b3f
00000030: 4e5b 263f 20ed 553f c473 313f 3174 0c3f
00000040: 87e5 753f 2cba 623f 35cc 253f c27a 413f
00000050: 7e3e 833f 7f65 9f3f 767c 823f 023f 143f
00000060: 8e29 3c3f f731 243f b60f 563f 89c5 193f
00000070: 45c6 723f 1505 5e3f 2369 833f 0e75 bd3f

model.layer1.0.downsample.0.weight f4 [32, 64, 1]
-0.4392135 0.2789102 -0.2102957 -0.45836538 0.010354681 -0.033981457 0.109712645 -0.20948417
0.049127303 -0.43670803 -0.3340161 -0.30681995 -0.08075087 -0.06131871 -0.19785212 -0.3628786
-0.16708362 -0.09859364 0.1525191 -0.17899388 -0.35620096 -0.017067386 0.2185212 -0.10393916
-0.34503743 -0.15862638 -0.28637713 -0.20150904 0.4194088 -0.40096274 -0.32631165 0.1132037
0.0035365939 -0.09331731 -0.23940228 -0.20153353 0.06962526 -0.19383392 0.4865589 0.11458259
-0.15495281 0.17249845 -0.1859026 -0.2359557 0.20820232 0.22201037 0.24848974 -0.14892069
-0.33829 -0.37830696 0.13051584 -0.1094889 0.15272948 0.36970317 -0.25513548 -0.31801403
0.18128209 -0.24770169 -0.10748733 0.47577757 -0.49192193 0.2844243 -0.12011164 0.053258732
0.06522886 0.18387693 -0.23935504 0.30966458 -0.17540258 -0.14550507 -0.14380752 -0.32993257
-0.22506857 0.08972094 0.4045827 0.47316122 -0.34349775 0.0125588905 0.33320442 0.13148727
-0.43293604 -0.10704495 -0.4590762 -0.06878944 -0.14238511 0.40157196 -0.42623466 -0.34089854
-0.10132221 0.09482553 -0.36715862 -0.09509771 -0.33799553 -0.034767706 -0.14104877 -0.06964773
0.64656603 -0.18849121 0.3099837 0.07178006 0.18479872 -0.14988162 -0.036757216 -0.03584436
0.13145587 0.19080171 0.12939909 -0.30026603 0.062401798 0.30641603 0.08473311 0.18619682
0.2766746 0.4306485 0.0642244 0.28958586 -0.23058176 -0.5659896 -0.36175084 0.19742022
0.046699878 0.0381181 -0.069713295 -0.1401379 0.55820495 -0.05661322 0.19418341 -0.30370274
-0.33842072 -0.03897269 -0.27299812 0.22971524 -0.2251677 0.041321147 0.05773591 0.2942646
-0.5212178 0.018011445 -0.2932984 -0.432225 0.0740205 -0.021258242 -0.5498476 0.06921095
0.07730198 0.52521133 0.25463057 0.10295109 0.17447461 0.06092988 0.2282893 0.34016886
-0.19749132 -0.30455837 -0.23112866 -0.6014192 -0.3030428 -0.15738374 0.3378631 0.053340506
0.024399376 0.42210597 0.017589383 0.22718118 0.24769641 -0.1871896 0.52875763 -0.22635521
0.03149961 0.18230699 -0.7828602 -0.07637841 0.3526876 -0.20127866 -0.031636193 -0.056887615
0.18433498 0.09390817 -0.42204767 0.3426266 -0.1098976 0.049170535 0.28362423 -0.21057877
-0.06489044 -0.375566 0.5650722 -0.01935772 -0.022124486 -0.27243137 -0.00043968164 0.34673214
-0.36639813 0.3217506 -0.0054811984 -0.06625998 0.0077481596 0.21410435 0.020402279 0.32220984
0.49964085 -0.034704324 -0.3970387 -0.08494816 -0.16079158 -0.012683293 0.018400587 -0.115003265
-0.35827905 0.24276163 0.389239 -0.26179725 -0.15709639 0.08370038 0.09927164 0.15292963
0.33210278 -0.11748668 -0.27003118 -0.10626974 0.017887596 -0.09845577 0.33215636 -0.15373288
-0.14857814 -0.39641565 -0.3289168 0.24109864 -0.023931807 0.0024611433 0.30173463 -0.010596377
-0.43989947 0.21426532 -0.21501338 0.19414878 -0.18094932 -0.088160455 0.035997037 -0.6267129
0.26207215 0.09029014 -0.23065811 0.35213265 0.1560185 0.1960549 -0.073772594 0.063460074
-0.27877685 -0.15872192 0.26403 0.053100694 -0.34626722 -0.014156966 0.11450067 -0.22015801
00000000: 98e0 e0be 51cd 8e3e c257 57be deae eabe
00000010: aea6 293c 2430 0bbd 06b1 e03d 0583 56be
00000020: b639 493d 3298 dfbe 2904 abbe 8117 9dbe
00000030: b660 a5bd 5429 7bbd bf99 4abe 39cb b9be
00000040: f817 2bbe 76eb c9bd f82d 1c3e 2c4a 37be
00000050: f95f b6be e7d0 8bbc 05c4 5f3e 0ede d4bd
00000060: bfa8 b0be f46e 22be 06a0 92be 6358 4ebe
00000070: c0bc d63e fd4a cdbe 5212 a7be 57d7 e73d
00000080: 33c6 673b 251d bfbd df25 75be ce5e 4ebe
00000090: b097 8e3d 667c 46be 401e f93e 47aa ea3d
000000a0: f3ab 1ebe 6fa3 303e 405d 3ebe 5f9e 71be
000000b0: fd32 553e b056 633e 1874 7e3e aa7e 18be
000000c0: 5934 adbe 73b1 c1be f2a5 053e b73b e0bd
000000d0: 1e65 1c3e bc49 bd3e 1ea1 82be bcd2 a2be
000000e0: 03a2 393e 83a5 7dbe 5122 dcbd 1e99 f33e
000000f0: 31dd fbbe 10a0 913e 17fd f5bd d425 5a3d
00000100: b596 853d 3c4a 3c3e 7d19 75be 5b8c 9e3e
00000110: bc9c 33be 48ff 14be 4742 13be ecec a8be
00000120: 6078 66be 9dbf b73d 7725 cf3e 3042 f23e
00000130: f0de afbe cec3 4d3c c599 aa3e 99a4 063e
00000140: cba9 ddbe 623a dbbd 090c ebbe 7ae1 8cbd
00000150: 67cd 11be d79a cd3e 6e3b dabe 418a aebe
00000160: 0582 cfbd e333 c23d 37fc bbbe 97c2 c2bd
00000170: c00d adbe 9568 0ebd 176f 10be 78a3 8ebd
00000180: 5a85 253f d703 41be 2fb6 9e3e 6d01 933d
00000190: e03b 3d3e 917a 19be bc8e 16bd 89d1 12bd
000001a0: 5e9c 063e 8661 433e 3281 043e 78bc 99be
000001b0: 0799 7f3d 90e2 9c3e 8e88 ad3d 61aa 3e3e
000001c0: 4ba8 8d3e f67d dc3e 1588 833d 9944 943e
000001d0: a01d 6cbe b2e4 10bf 6837 b9be 8728 4a3e
000001e0: 5f48 3f3d ba21 1c3d d8c5 8ebd 4f80 0fbe
000001f0: 85e6 0e3f 44e3 67bd 04d8 463e ed7e 9bbe
00000200: 7b45 adbe d4a1 1fbd 69c6 8bbe 793a 6b3e
00000210: 5d92 66be 5d40 293d 7d7c 6c3d daa9 963e
00000220: 886e 05bf bd8c 933c 352b 96be 984c ddbe
00000230: 0f98 973d c425 aebc d0c2 0cbf 78be 8d3d
00000240: 8050 9e3d 4074 063f f05e 823e 05d8 d23d
00000250: 79a9 323e 9c91 793d acc4 693e 9d2a ae3e
00000260: 2a3b 4abe 13ef 9bbe feac 6cbe 9cf6 19bf
00000270: 6d28 9bbe 3429 21be 64fc ac3e 937b 5a3d
00000280: 33e1 c73c 461e d83e 9c17 903c 2fa2 683e
00000290: 21a4 7d3e a1ae 3fbe a95c 073f a9c9 67be
000002a0: bc05 013d afae 3a3e 8769 48bf 496c 9cbd
000002b0: 7893 b43e fe1b 4ebe f494 01bd fd02 69bd
000002c0: 4fc2 3c3e ed52 c03d a216 d8be c16c af3e
000002d0: fe11 e1bd 0b67 493d 3237 913e f6a1 57be
000002e0: 47e5 84bd 304a c0be 92a8 103f 1594 9ebc
000002f0: 693e b5bc 207c 8bbe 1285 e6b9 e086 b13e
00000300: 8998 bbbe 7fbc a43e a09b b3bb 50b3 87bd
00000310: 46e4 fd3b 2c3e 5b3e ae22 a73c b0f8 a43e
00000320: edd0 ff3e 1f26 0ebd a848 cbbe 4df9 adbd
00000330: 8ca6 24be 96cd 4fbc d4bc 963c d586 ebbd
00000340: 5a70 b7be 8196 783e 564a c73e 4a0a 86be
00000350: e0dd 20be 1b6b ab3d ee4e cb3d 9699 1c3e
00000360: 6009 aa3e db9c f0bd 8741 8abe f3a3 d9bd
00000370: 0289 923c 2ea3 c9bd 6610 aa3e 276c 1dbe
00000380: de24 18be fef6 cabe c867 a8be 90e2 763e
00000390: a30c c4bc 224b 213b f67c 9a3e 6d9c 2dbc
000003a0: 813a e1be 5e68 5b3e 782c 5cbe f0ce 463e
000003b0: c74a 39be 788d b4bd a171 133d 4270 20bf
000003c0: 522e 863e 09ea b83d a431 6cbe bb4a b43e
000003d0: 50c3 1f3e 9ec2 483e 1616 97bd 5bf7 813d
000003e0: d7bb 8ebe 0088 22be f12e 873e 1d80 593d
000003f0: f049 b1be 9ef2 67bc 547f ea3d 1a71 61be

model.layer1.0.downsample.1.weight f4 [32]
0.7916323 0.9461434 0.7751795 0.7432606 0.93380857 0.80648845 0.8008051 0.87772685
0.8390172 0.863342 0.8690709 0.74483734 0.8434546 0.90650034 0.9093014 0.89828295
0.88267213 0.89042765 0.8194084 0.8516493 0.8370738 0.82622224 0.7240852 0.9060339
0.90173864 0.87423325 0.890542 0.8190893 0.83079815 0.919243 0.8683217 0.9143732
00000000: 6aa8 4a3f 7436 723f 2a72 463f 5446 3e3f
00000010: 140e 6f3f 0776 4e3f 9001 4d3f b5b2 603f
00000020: d5c9 563f fb03 5d3f 6e7b 5e3f a9ad 3e3f
00000030: a4ec 573f 6810 683f fac7 683f dff5 653f
00000040: cdf6 613f 11f3 633f c0c4 513f b005 5a3f
00000050: 784a 563f 4d83 533f a65d 393f d6f1 673f
00000060: 58d8 663f c0cd 5f3f 8ffa 633f d6af 513f
00000070: 30af 543f 8253 6b3f 554a 5e3f 5d14 6a3f

model.layer1.0.downsample.1.bias f4 [32]
0.045814294 0.05634612 -0.07741074 -0.030907432 -0.03754145 -0.02468789 -0.04218948 -0.10403573
0.1070495 -0.003598032 -0.11291455 0.006091468 0.0026254228 -0.05583953 -0.13096179 -0.019113412
-0.05705268 0.031122059 0.018296573 0.102964394 -0.009096675 -0.03081343 -0.016838286 -0.005618495
0.006159572 0.06769449 0.027433077 -0.01832772 0.042988624 0.080506876 -0.06597204 -0.07198199
00000000: c5a7 3b3d 30cb 663d 8689 9ebd 9531 fdbc
00000010: 10c5 19bd 423e cabc e0ce 2cbd af10 d5bd
00000020: c53c db3d f6cc 6bbb be3f e7bd f09a c73b
00000030: 490f 2c3b feb7 64bd d91a 06be bb93 9cbc
00000040: 12b0 69bd b0f3 fe3c b2e2 953c ffde d23d
00000050: 380a 15bc 726c fcbc 72f0 89bc 5a1b b8bb
00000060: 3cd6 c93b 69a3 8a3d 55bb e03c 0424 96bc
00000070: d714 303d cae0 a43d 591c 87bd 4b6b 93bd

model.layer1.0.downsample.1.running_mean f4 [32]
-2.232797 -0.11003556 -0.07314009 -0.68490314 1.5847195 0.094246596 -0.25845888 -0.33359814
-1.5843668 -0.6309114 -1.2236707 -1.4013175 1.5675466 0.5254789 -0.07590018 -0.7906939
-2.5263095 0.02321056 -0.4683946 0.06602346 0.26543975 -1.4448245 -0.44899634 0.041920226
0.8827247 -0.27574244 2.4340255 -0.47781506 -1.9891037 -0.5368075 0.43148252 0.29603276
00000000: 25e6 0ec0 535a e1bd 79ca 95bd d055 2fbf
00000010: 17d8 ca3f 5c04 c13d b954 84be 60cd aabe
00000020: 88cc cabf 6983 21bf 3ea1 9cbf 5f5e b3bf
00000030: 5ea5 c83f c985 063f 8e71 9bbd ea6a 4abf
00000040: 0eaf 21c0 1324 be3c 6bd1 efbe 4f37 873d
00000050: b8e7 873e 02f0 b8bf d9e2 e5be 8bb4 2b3d
00000060: 3ffa 613f 1d2e 8dbe 13c7 1b40 2da4 f4be
00000070: f39a febf 376c 09bf 47eb dc3e 9b91 973e

model.layer1.0.downsample.1.running_var f4 [32]
3.626481 3.7401824 2.603037 2.4865477 2.7375567 2.1306658 2.468408 1.2871987
2.222677 2.6667287 2.4283864 1.3282348 1.0547076 2.538735 1.5230204 2.257757
1.9541146 3.22374 1.6106364 3.0696125 1.6065357 2.017566 1.7189773 0.90201277
2.2179868 2.647217 1.6346307 1.7404367 2.342532 2.6559937 1.5807198 0.7969239
00000000: 4418 6840 265f 6f40 2998 2640 9923 1f40
00000010: 2134 2f40 d45c 0840 66fa 1d40 edc2 a43f
00000020: 5740 0e40 afab 2a40 af6a 1b40 9903 aa3f
00000030: a900 873f a27a 2240 55f2 c23f 177f 1040
00000040: 6d20 fa3f c251 4e40 5529 ce3f 8874 4440
00000050: f6a2 cd3f cd1f 0140 7307 dc3f 4fea 663f
00000060: 7ff3 0d40 016c 2940 943b d13f a1c6 de3f
00000070: 0bec 1540 cdfb 2940 0755 ca3f 3403 4c3f

model.layer2.0.conv1.weight f4 [32, 32, 3]
-0.19750912 0.12925678 0.017144492 -0.122900344 -0.08104383 -0.144924 0.2953358 0.36631063
-0.082287066 0.14934833 0.108327046 0.17430069 0.3061182 0.11885935 -0.06268007 0.052769527
0.18565495 0.27836892 -0.09944075 -0.34102246 0.09060345 0.15608199 0.2026878 0.0050909086
-0.056496307 -0.020213343 -0.12088881 -0.34956768 0.020316627 0.04179064 0.33485284 -0.006992984
0.3413931 -0.2671846 0.079800665 0.34928337 0.03350456 0.004340339 0.49843624 0.0015877518
0.13760085 -0.084434494 -0.048975583 -0.28410602 -0.3423373 -0.15465544 0.17299649 0.102380894
-0.30519882 -0.19143806 -0.12879106 0.03899634 -0.18437524 0.25215045 0.064852834 -0.042009033
0.17367604 -0.053460333 0.15830043 0.15953124 0.27981165 0.15753908 0.28677723 0.15533496
-0.038375035 0.08716188 -0.06692195 0.17049536 0.24402763 0.03554453 0.2211782 0.10433649
0.16146772 -0.1667214 -0.05348797 0.14488289 -0.090043046 -0.055327713 -0.13473512 -0.07559353
0.33033866 0.11318736 -0.27948847 0.11029694 0.1308675 0.12817127 -0.0313254 0.06102636
0.2714811 -0.10893919 -0.22850344 0.23462667 -0.109162435 0.06802871 0.005964856 0.1570498
0.06339268 -0.474434 -0.014291938 0.17468922 -0.18067154 0.1246154 0.2059275 -0.13736431
-0.036874533 -0.03288643 0.12347834 0.12551177 -0.12536286 -0.14703622 0.08398386 0.100374945
0.027593054 0.12666388 -0.0068133986 0.09361985 -0.007959835 0.1966045 -0.12086533 0.14182675
0.10086935 0.19936894 0.00824299 -0.3303969 0.17919788 -0.0059917797 -0.06820331 -0.06537698
0.08599774 -0.20400906 -0.29073867 0.010535172 -0.28122872 0.050454203 0.332356 -0.089233086
0.14671 -0.02326882 0.10923921 -0.13127062 -0.057424717 -0.010530525 0.042544626 0.2271893
0.04878819 0.22773497 0.014883003 0.05523369 0.22949278 -0.058104794 -0.23676395 -0.09053387
0.10660165 -0.26702005 -0.090181544 0.10042036 -0.010513361 0.0872455 0.053466573 0.14524263
0.19427675 0.06587866 0.14714505 0.045987472 -0.04537713 0.03159177 0.074479595 -0.22944964
0.05008303 -0.25084472 -0.3958538 0.023044704 0.15612623 -0.15213282 -0.06770831 -0.22946784
0.22374742 0.18290615 -0.09809395 0.16059783 0.07634034 0.008669185 0.16300683 -0.17709027
-0.00833447 -0.10696765 0.04215641 -0.30254817 -0.065542184 0.30749407 -0.016816404 -0.21352564
0.20730467 0.27274138 -0.05201274 0.17721818 -0.1087488 -0.09028562 0.0025797077 -0.3586429
-0.026426451 0.05410286 -0.44038802 0.12373328 -0.05599767 -0.23062178 0.31545213 0.104877986
0.2704938 -0.4197679 -0.14629902 0.19557597 0.41218418 -0.028700722 0.047892176 0.0018820727
-0.15334405 -0.14258112 0.25300252 0.13764387 -0.039559815 0.097282864 -0.12064516 0.0752643
0.022872426 -0.017021911 -0.020198494 0.02921144 0.21533078 0.022938116 0.25900757 0.0409657
-0.03617327 0.05977438 -0.29610524 -0.12976223 0.07332251 0.45729122 -0.13182135 -0.15362449
0.0972284 -0.07162568 -0.051387493 -0.034253817 -0.0008971485 0.21191327 0.042670693 0.08808038
0.2374633 -0.04170635 0.13335124 -0.10940865 -0.08230857 0.28570402 -0.27068207 0.053699326
00000000: d53f 4abe e45b 043e 9b72 8c3c 2db3 fbbd
00000010: 4ffa a5bd f566 14be 4136 973e 118d bb3e
00000020: 1f86 a8bd c5ee 183e 92da dd3d e17b 323e
00000030: 86bb 9c3e 886c f33d 695e 80bd dc24 583d
00000040: 551c 3e3e 5f86 8e3e 98a7 cbbd 7f9a aebe
00000050: 4d8e b93d f5d3 1f3e 648d 4f3e a3d1 a63b
00000060: ac68 67bd 7496 a5bc 8d94 f7bd 89fa b2be
00000070: 0e6f a63c aa2c 2b3d d571 ab3e 6725 e5bb
00000080: 14cb ae3e 6bcc 88be 886e a33d 45d5 b23e
00000090: 143c 093d 6739 8e3b 0933 ff3e 1c1c d03a
000000a0: 3de7 0c3e feeb acbd 9f9a 48bd 5876 91be
000000b0: d646 afbe ff5d 1ebe fe25 313e 13ad d13d
000000c0: 0543 9cbe 5708 44be cee1 03be a0ba 1f3d
000000d0: ddcc 3cbe dd19 813e 90d1 843d aa11 2cbd
000000e0: 22d8 313e 39f9 5abd 8219 223e 285c 233e
000000f0: 7943 8f3e ed51 213e 77d4 923e 2110 1f3e
00000100: 242f 1dbd ee81 b23d 600e 89bd 5696 2e3e
00000110: 61e2 793e 2497 113d 8a7c 623e 5fae d53d
00000120: cb57 253e 04b9 2abe 3416 5bbd 2e5c 143e
00000130: 7d68 b8bd 509f 62bd 01f8 09be c8d0 9abd
00000140: 2622 a93e c6ce e73d 1d19 8fbe 5de3 e13d
00000150: 2102 063e 543f 033e 104f 00bd c7f6 793d
00000160: 92ff 8a3e 831b dfbd cefc 69be f941 703e
00000170: 8e90 dfbd a352 8b3d d774 c33b aad1 203e
00000180: 05d4 813d 03e9 f2be bc28 6abc bbe1 323e
00000190: f601 39be 5c36 ff3d a9de 523e 3ba9 0cbe
000001a0: c009 17bd ecb3 06bd 36e2 fc3d 2886 003e
000001b0: 1f5f 00be aa90 16be bbff ab3d 6191 cd3d
000001c0: d40a e23c 2db4 013e ee42 dfbb c4bb bf3d
000001d0: f869 02bc b152 493e 3e88 f7bd 083b 113e
000001e0: 9794 ce3d 5f27 4c3e 9b0d 073c c829 a9be
000001f0: a67f 373e b156 c4bb 2dae 8bbd 5ee4 85bd
00000200: 951f b03d c0e7 50be b3db 94be b79b 2c3c
00000210: 36fd 8fbe 11a9 4e3d 912a aa3e d6bf b6bd
00000220: 253b 163e 419e bebc cfb8 df3d ce6b 06be
00000230: 2e36 6bbd 3988 2cbc 4643 2e3d 50a4 683e
00000240: 20d6 473d 5b33 693e d7d7 733c b93c 623d
00000250: 2800 6b3e 4bff 6dbd 4072 72be d269 b9bd
00000260: f751 da3d dab6 88be 1ab1 b8bd 31a9 cd3d
00000270: 3b40 2cbc c5ad b23d c4ff 5a3d 7cba 143e
00000280: 7cf0 463e 64eb 863d 31ad 163e 5c5d 3c3d
00000290: 5fdd 39bd 5f66 013d c288 983d d9f4 6abe
000002a0: dd23 4d3d b86e 80be 59ad cabe 3fc8 bc3c
000002b0: 8edf 1f3e b5c8 1bbe a8aa 8abd 9ef9 6abe
000002c0: 0b1e 653e c04b 3b3e 7be5 c8bd c273 243e
000002d0: 5358 9c3d 3309 0e3c 43eb 263e 2757 35be
000002e0: 4d8d 08bc db11 dbbd 33ac 2c3d 98e7 9abe
000002f0: fb3a 86bd dd6f 9d3e 8ec2 89bc 77a6 5abe
00000300: ad47 543e c2a4 8b3e 500b 55bd af78 353e
00000310: b1b7 debd abe7 b8bd 5010 293b 0ba0 b7be
00000320: 497c d8bc f69a 5d3d 8a7a e1be e067 fd3d
00000330: d05d 65bd 1e28 6cbe f182 a13e 45ca d63d
00000340: 2a7e 8a3e d1eb d6be 69cf 15be 1145 483e
00000350: ce09 d33e c71d ebbc 962a 443d e1af f63a
00000360: 3906 1dbe c900 12be 8c89 813e 84f2 0c3e
00000370: 7909 22bd 3d3c c73d cf14 f7bd 2b24 9a3d
00000380: f45e bb3c 8971 8bbc 5077 a5bc d44c ef3c
00000390: ac7f 5c3e b7e8 bb3c a49c 843e a6cb 273d
000003a0: 6c2a 14bd fbd5 743d 1b9b 97be 64e0 04be
000003b0: 1d2a 963d 1322 ea3e 2dfc 06be bd4f 1dbe
000003c0: af1f c73d 7cb0 92bd b17b 52bd bb4d 0cbd
000003d0: 9e2e 6bba cbff 583e 77c7 2e3d 7c63 b43d
000003e0: 9429 733e 47d4 2abd 3a8d 083e a411 e0bd
000003f0: 6591 a8bd cc47 923e d796 8abe d3f3 5b3d

model.layer2.0.bn1.weight f4 [32]
0.86736363 0.8902457 0.8778818 0.9027724 0.87278455 0.9080633 0.9205994 0.96403
0.9253674 0.9731556 0.8611823 0.8905775 0.82836074 0.92816013 0.9653832 0.83976424
0.93212086 0.8794996 0.89728427 0.9105748 0.83695257 0.87079555 0.9120791 0.9364091
0.91703635 0.91177917 0.9167068 0.9147672 0.95565444 0.84507585 0.80854845 0.9551354
00000000: 8b0b 5e3f 24e7 633f ddbc 603f 181c 673f
00000010: cf6e 5f3f d676 683f 67ac 6b3f acca 763f
00000020: e1e4 6c3f ba20 793f 7176 5c3f e3fc 633f
00000030: 730f 543f e79b 6d3f 5a23 773f cafa 563f
00000040: 799f 6e3f e326 613f 6cb4 653f 6e1b 693f
00000050: 8642 563f 75ec 5e3f 047e 693f 82b8 6f3f
00000060: e5c2 6a3f 5c6a 693f 4cad 6a3f 2f2e 6a3f
00000070: c5a5 743f e456 583f 08fd 4e3f c183 743f

model.layer2.0.bn1.bias f4 [32]
-0.094470695 0.054641 -0.11262311 0.13818918 -0.050273746 -0.12445863 -0.024526672 -0.027462292
0.10853598 -0.0490368 -0.17615128 0.0831902 -0.09790941 -0.022351647 -0.010779207 -0.06943591
-0.21495533 -0.10737607 -0.04039584 -0.058941647 0.04068886 -0.032173958 -0.09338891 -0.042459376
-0.054943286 -0.09676195 -0.067419 -0.14694324 0.027499959 -0.17596838 -0.015152541 -0.10882244
00000000: da79 c1bd 3ecf 5f3d f2a6 e6bd 7781 0d3e
00000010: d8eb 4dbd 2be4 febd 29ec c8bc 9af8 e0bc
00000020: 1d48 de3d d0da 48bd 0061 34be a05f aa3d
00000030: bb84 c8bd cd1a b7bc 459b 30bc 6a34 8ebd
00000040: 401d 5cbe fce7 dbbd 1c76 25bd cc6c 71bd
00000050: 5da9 263d d7c8 03bd af42 bfbd e2e9 2dbd
00000060: 360c 61bd 212b c6bd f912 8abd 4a78 16be
00000070: 9847 e13c 0e31 34be 5d42 78bc 4dde debd

model.layer2.0.bn1.running_mean f4 [32]
1.9726747 0.13074988 1.3672616 -0.20246986 1.6510804 1.4075826 -1.6240946 -0.624738
-1.2751844 0.7176743 1.4950306 -0.28765416 -0.8051451 -1.6460474 -0.72252434 0.7619737
0.5349848 -0.27074993 0.12607238 -0.73739725 1.0712026 0.42731994 0.23633954 -0.37404338
-0.48862278 -1.4083254 -1.8337497 -2.1039844 -0.3965688 -0.6988767 0.13083291 -0.52866185
00000000: 9b80 fc3f 4ce3 053e 6e02 af3f 4254 4fbe
00000010: 9a56 d33f ab2b b43f 55e2 cfbf d4ee 1fbf
00000020: 3e39 a3bf 81b9 373f 2a5d bf3f 6847 93be
00000030: fd1d 4ebf aeb1 d2bf 5bf7 38bf b510 433f
00000040: c4f4 083f bc9f 8abe 1e19 013e 11c6 3cbf
00000050: 2b1d 893f aec9 da3e fe02 723e 9d82 bfbe
00000060: c42c fabe 0244 b4bf 4fb8 eabf aea7 06c0
00000070: 110b cbbe 95e9 32bf 10f9 053e 6256 07bf

model.layer2.0.bn1.running_var f4 [32]
2.2252014 1.4158566 1.9963466 4.082332 2.7554553 2.2689855 3.7836695 2.0433807
3.570442 1.7632502 1.9752705 1.6064657 2.4835289 2.2870605 2.235557 2.2506254
2.2484534 1.4766705 1.9699992 2.3139663 1.5427027 1.8343674 1.9025015 2.1332726
1.58129 1.4236947 1.5245242 3.5967708 3.2948043 1.34435 2.169047 2.8655293
00000000: b369 0e40 ca3a b53f 4988 ff3f 77a2 8240
00000010: 6159 3040 0f37 1140 a427 7240 c0c6 0240
00000020: 1f82 6440 2fb2 e13f aad5 fc3f aba0 cd3f
00000030: 23f2 1e40 335f 1240 5e13 0f40 3f0a 1040
00000040: a9e6 0f40 8a03 bd3f ef28 fc3f 0618 1440
00000050: 4877 c53f 8dcc ea3f 2b85 f33f 8a87 0840
00000060: b667 ca3f a13b b63f 9c23 c33f 7e31 6640
00000070: 13de 5240 a913 ac3f abd1 0a40 d564 3740
