ckpt/R10/NeuroTech-epoch=45-val_acc=0.91.ckpt (torch, 953765 bytes, 151 tensors)

model.conv1.weight f4 [64, 6, 7]
00000000: 17e3 73bc d60d 3bbe 5a78 f33c e726 8d3d
00000010: 36e4 fb3d dba3 2b3e 4f24 853e 8402 22be
00000020: df4e f63d 40ca 023e 0a6d 523e 954b 2c3e
00000030: 1700 e23d 8d45 87bd 5d33 3fbd 4424 b53c
00000040: e984 15be c2e6 60bd 692d 1abe 180f a0be
00000050: f939 6fbe 6e5d 5ebe 8d4e 84bd 161c 42bd
00000060: 85ea 6c3d 9e62 583d c789 ca3d 6755 1a3d
00000070: b56d 233d e7c1 d23b 2022 013d a20b 353d
00000080: 0399 ed3d 8c82 ac3d 1903 ab3d 1f71 83be
00000090: db48 88bc d66d e2bd 1a9a 21be 9ebf efbd
000000a0: 42fc 4abe 09a5 0cbe d87a 77be 3cdb a9bd
000000b0: f934 a0be 3ec9 cdbe d22d 74be 109f c8be
000000c0: 0819 4fbe 2aa9 79bc df97 19be 8372 31be
000000d0: b61b b3bd 4728 49bd 1f4f 333e 66f1 693b
000000e0: ff08 573c 88e8 f3bd 64b7 f6bd a890 973c
000000f0: 1a78 aabd ac57 34be a908 bbbe 25f7 a1bd
00000100: 56bb 9dbd 4256 0e3d 0368 c6bd 9847 07be
00000110: 30ed e1bd 297c 2bbe e277 51bd 5783 e5bd
00000120: 7006 263c aded 3f3d 9a23 a9bc d170 99bd
00000130: d3f5 5f3d 88c8 15be 5ca8 38bd eb82 bb3d
00000140: 8fb9 143c c41f 113d 3494 d7bb 1507 693d
00000150: a053 f93d 675d acbe 72de bdbe a76c 6dbe
00000160: 21d1 0e3e 068d 843e 2a46 b03e a6c4 8dbd
00000170: 09d9 04bd 648d 813e 7181 2b3e ed9a 7d3e
00000180: 4606 1ebd b69c 29bd 7a57 0d3e 6ded aabd
00000190: ed91 87be 4b6a b8bd f296 0cbe f813 bc3d
000001a0: 70a5 253d 8b46 ff3c 2fea 1f3d 3e3b 86bc
000001b0: 9f80 0b3d 58e6 123e 66ef b63d 5de3 2e3d
000001c0: f347 783d 7ff5 24bc 15d3 02bd be74 3f3d
000001d0: 65ef 8dbd d3e0 57bd 582a a63c 9ccc 383d
000001e0: 334f d73c 1987 84bc 2891 ccbd e6a4 ee3c
000001f0: edae d4bc 7e89 2b3d bbbb 2d3e 8e72 843e
00000200: 13f8 ca3d 7f83 dc3d f61f 27bb b9d1 423e
00000210: e2da 043d db4c 47be 912a 6ebe 9046 babd
00000220: 5454 323d 237c 98be 4489 64be 3bd6 2bbe
00000230: 3bcd 84bd bdd6 06bd a707 95bd 4555 d23d
00000240: 8fa3 533d f3b0 953c f838 fd3c 485a 2f3d
00000250: bb14 6c3d 4709 a13d 6bc8 323e d7c7 e53d
00000260: 7a64 0f3d b8e8 393e e70f f0bb 04d5 a8bc
00000270: f6e6 563d 8ffb 1abd e628 c93d 383b 663d
00000280: fbf2 bc3c c832 8e3d 735b 5a3d 9f66 353e
00000290: 8bc9 023e 4943 333e 06bd 3a3e cb7e 653e
000002a0: 8bde 70be 702c f8bc e2b1 c73d 621f 05bf
000002b0: 8a17 dfbe 5ce7 013e 77b7 9abe b826 10bd
000002c0: 4c96 7d3e 1598 d43d 9568 89bd cb0a 5abc
000002d0: dd5c 103e b0c8 d23b 7816 f53d aa46 e2bb
000002e0: 814b 75bd 4fae 1abe db18 333e 2c01 28be
000002f0: a8ae 5f3e 4ff4 c73d 7c1f 2d3d 12b5 b1bd
00000300: 04dc e43c 08a1 d53c 8bb1 20bd fefa 4abd
00000310: 2fa3 fb3c 28a0 42bc 4705 4e3d f5ee 4d3d
00000320: f4df dc3c a6e5 773b e508 293d 7459 10be
00000330: 6d33 a23d 318a 9ebd e120 f83c c324 d5bc
00000340: 7ea4 49bd a035 30be 1618 fdbd 1c01 ac3c
00000350: 58e0 023d 5261 b93c 077d 0a3c 4050 963d
00000360: 2688 2c3e 4404 bb3e 7001 eb3e 132e 9b3e
00000370: b14c 1b3e 173d 39bc dcc8 c3bd 5bfa d8be
00000380: 85d2 7d3d c1a4 da3d dd41 1fbe 69e5 81b9
00000390: 2928 b4bc 1577 9fbe d8a4 2dbe 3e72 82bd
000003a0: 76bc a73b 10d9 e0bd 695d b1bc 4d73 62bc
000003b0: e167 ddbd 0fb4 96bd 60e6 8cbd d685 d53c
000003c0: bbb2 8cbd daa2 ec3c 0a74 3bbd 4ec5 ef3a
000003d0: 8790 413d 3d5c 8dbc 2ebd c5bc dfbc d33d
000003e0: 2249 bc3c d5d1 70bc 7144 28bc 164d 3dbd
000003f0: 043b 883e f662 353e eedf 003e c4d8 bd3e
-0.014885685 -0.18266997 0.029720474 0.06892186 0.12299387 0.16761725 0.26004264 -0.15821272
0.12026762 0.12772465 0.20549408 0.16825707 0.110351734 -0.06605063 -0.046679843 0.02211202
-0.14601482 -0.054907568 -0.15056385 -0.31261516 -0.23361959 -0.21715328 -0.06460295 -0.047390066
0.057840843 0.052828424 0.0988956 0.037679102 0.039899547 0.0064318064 0.031526685 0.044200547
0.1160145 0.08423337 0.083502 -0.25672242 -0.016636303 -0.11056106 -0.15781441 -0.1170647
-0.19822791 -0.13734831 -0.24167955 -0.08293769 -0.31290415 -0.40192598 -0.23845604 -0.39183855
-0.20224392 -0.015238086 -0.1499934 -0.17328839 -0.0874552 -0.049110677 0.17510651 0.0035696863
0.013124703 -0.11909586 -0.12046698 0.018501595 -0.08323689 -0.17611569 -0.36530045 -0.07908467
-0.07701747 0.03475023 -0.096878074 -0.13210905 -0.11031568 -0.16746582 -0.05113972 -0.11206692
0.010133371 0.046857525 -0.020646859 -0.07492221 0.054677796 -0.14627278 -0.045082435 0.0915583
0.009077444 0.035430685 -0.0065789465 0.05689152 0.12174153 -0.3366501 -0.37083775 -0.23185979
0.13946964 0.25888842 0.3442853 -0.06922273 -0.032433543 0.25303185 0.16748597 0.24766131
-0.0385802 -0.041409217 0.13802901 -0.083460666 -0.2647852 -0.09004649 -0.13729456 0.09183496
0.040440977 0.031161567 0.039041694 -0.01638567 0.03405821 0.14345682 0.089323804 0.0426973
0.06061549 -0.010068296 -0.031939585 0.046742193 -0.069304265 -0.052704643 0.020283863 0.045117006
0.026282882 -0.0161777 -0.09988624 0.029131364 -0.025962317 0.04187917 0.16966145 0.25868648
0.09910598 0.107672684 -0.0025501228 0.19025315 0.032435305 -0.19462912 -0.23258425 -0.0909549
0.043537453 -0.2978221 -0.22317988 -0.16780941 -0.06484457 -0.032919634 -0.0727685 0.1027017
0.051669654 0.018272853 0.030910954 0.04281071 0.057636958 0.07863098 0.17459266 0.11219757
0.03500793 0.18155181 -0.0073261145 -0.020609386 0.052466355 -0.03783756 0.09822254 0.05620882
0.02306508 0.069432795 0.05330987 0.17714928 0.12772195 0.17506136 0.18236169 0.22411649
-0.23522393 -0.030294627 0.09750725 -0.5200101 -0.43572646 0.12685913 -0.30218098 -0.035193175
0.24764365 0.1038057 -0.067094006 -0.013308237 0.14097925 0.006432615 0.11967176 -0.0069053965
-0.05988646 -0.15105556 0.1748995 -0.16406697 0.2184397 0.09763395 0.042266354 -0.086771145
0.027936943 0.026077762 -0.03923182 -0.04955577 0.03071746 -0.011879005 0.050298 0.050276715
0.026962258 0.003782609 0.041268248 -0.14096624 0.07919965 -0.07741202 0.030289115 -0.026018506
-0.049229138 -0.17207956 -0.1235811 0.020996623 0.031952232 0.022629414 0.00845266 0.07339525
0.16848812 0.36526692 0.45899534 0.3030859 0.15165974 -0.011306069 -0.09559795 -0.42378506
0.061968345 0.106759556 -0.15552469 -0.0002477572 -0.021991806 -0.3114554 -0.16957414 -0.06369446
0.005118902 -0.109789014 -0.021650987 -0.013821435 -0.10810829 -0.07358562 -0.06879878 0.026064795
-0.06870028 0.028886247 -0.04576496 0.0018293054 0.047256973 -0.017255897 -0.02413806 0.10338759
0.022984091 -0.014698465 -0.010270224 -0.046216093 0.26607525 0.17713532 0.12585422 0.37079442

model.bn1.weight f4 [64]
00000000: 3d0b 4c3f 733d 493f 16b6 5f3f 50b0 2c3f
00000010: 7862 3b3f b7a5 733f 9fa0 6b3f 7161 4f3f
00000020: 4d1a 8f3f 948e 513f bf5f 153f f045 7e3f
00000030: cf8b 483f c030 533f e184 5e3f f579 8c3f
00000040: 25d9 7b3f 2ceb 413f 1828 443f 215e 593f
00000050: 6255 3e3f 5e61 513f 708d 473f 4c27 483f
00000060: 2592 183f 2a3d 223f 478a 383f 1a17 513f
00000070: e077 5e3f f5dd 433f 7810 363f 21b2 6f3f
00000080: ec5c 363f eb46 3c3f 590f 8e3f 2126 373f
00000090: 0984 503f 67cb 853f b4a9 3d3f 6c56 563f
000000a0: c816 5e3f 86eb 3c3f 47ca 583f 4464 4b3f
000000b0: 47d6 433f e0bd 533f cc59 3e3f 9459 4f3f
000000c0: 1b5f 2c3f ffcf 493f 6fe2 4a3f 0f58 413f
000000d0: 1066 4f3f e0e7 253f 7720 523f bc4f 853f
000000e0: 31e9 523f 5bfd 4d3f 9fa4 453f 8a1f 523f
000000f0: dad0 3d3f 26fc 443f ac14 8b3f 83aa 6a3f
0.7970465 0.7860939 0.87387216 0.6745653 0.73197126 0.95174736 0.92041963 0.8100806
1.1179901 0.8185818 0.5834922 0.99325466 0.7833833 0.8249626 0.8692151 1.0974718
0.9837821 0.7574947 0.7662368 0.84909254 0.74349034 0.81789196 0.7795019 0.7818496
0.59598 0.6337458 0.72085994 0.81675875 0.86901665 0.76510555 0.7111888 0.9363118
0.7123554 0.7354571 1.1098434 0.71542555 0.8145147 1.0452698 0.7408707 0.8372562
0.8675351 0.7379688 0.8468365 0.7944987 0.76498836 0.827116 0.7435577 0.8099606
0.6733262 0.78833 0.7925176 0.7552499 0.8101511 0.6480694 0.8208079 1.0414958
0.8238707 0.80464715 0.77204317 0.82079375 0.7414681 0.7694725 1.0865684 0.9166643

model.bn1.bias f4 [64]
00000000: 42b2 37bd ffc0 28be 67eb f13b a80d 2cbe
00000010: 1af8 96bc 07c8 dabd e4c5 a1bc eb18 473c
00000020: c967 85bd 9bfd 35be e282 c33c 33cc 15be
00000030: baa9 c0bd c342 32be 87d7 7ebe 92c7 dabc
00000040: da20 1f3e e7f4 28bd 37e6 08be 8e8f e4bc
00000050: 03de 27be 5215 48bd 57f8 fd3d 543a eabd
00000060: 8903 e6bd 7bb9 38be d5b2 6cbe e4a9 77bd
00000070: d687 32bd 5e84 85bd f8d3 49be adeb f53d
00000080: cd4a 69bd 88c3 c7bd f6c2 f33d 1749 2ebe
00000090: f992 d8bd 4f6f a93e 1be3 58be 9353 a4bd
000000a0: 147c af3d 099a 4fbe 2855 39bd a461 43be
000000b0: a8e5 12be 7bef 3c3d de32 b8bd 9ea1 35bd
000000c0: 79af 85bd 2581 01be 160e a7be 1589 54be
000000d0: 3f1e 7bbc f111 95bd edd8 383c d459 3d3e
000000e0: 5ee8 6e3d 9090 ad3d 6636 373d dc27 a63d
000000f0: 0820 32be da88 cc3c 24db 613e 5e10 9abd
-0.044847734 -0.16479872 0.0073827985 -0.16802084 -0.01842885 -0.106826834 -0.019747682 0.012151937
-0.06513936 -0.17772524 0.02386612 -0.14628677 -0.09407373 -0.1740828 -0.24886905 -0.02670649
0.15539876 -0.041249182 -0.1336907 -0.027900483 -0.16393284 -0.048848458 0.12400883 -0.114369065
-0.11231143 -0.18039505 -0.23115094 -0.060464755 -0.043586574 -0.06519388 -0.19709766 0.12007842
-0.0569561 -0.097540915 0.1190242 -0.17020069 -0.10574908 0.33092734 -0.21180384 -0.08023753
0.08568588 -0.20273603 -0.045247227 -0.19080216 -0.1434542 0.046126824 -0.08994077 -0.044343583
-0.065276094 -0.12646921 -0.32627934 -0.20755418 -0.015327035 -0.07278813 0.011282188 0.18491298
0.05832707 0.08474839 0.044729613 0.08113071 -0.17395031 0.0249676 0.22056252 -0.07522653

model.bn1.running_mean f4 [64]
00000000: 800c b0be aa82 efbf 2604 533e 88f3 433f
00000010: 9605 e7be df41 243c 6c0a b53f aeea 993f
00000020: 27e7 2f3c 1f40 2bbf a759 69be 34a2 8d3d
00000030: 9cbc 6f3f c643 62bf 075d 5bbd 9b2c 113d
00000040: 6e4c c4bd d531 8abe 4ae8 74be 206e debe
00000050: a5ca 1c3f 7be8 343f bdf4 6d3f f51e 24be
00000060: 57d0 8f3f 95c4 03be 92ab 83be 5415 c6be
00000070: 5e0f 2dbf 9455 4f3f f5e2 f4be 8e7a 40bd
00000080: 793d 9b3f d74b 82bf 0eae 8cba 76a2 693f
00000090: 3fe3 89bd 2d6d 55be 7126 7dbf 8c15 43bf
000000a0: 86bd 463f 9f6f 653e b0d7 843d dacb 933e
000000b0: a60a 733f ca95 533d 350a 3bbe c3f6 76bf
000000c0: 308f c43e d17f 0ebf 2aff 59be e675 b9be
000000d0: eaec 72bf 2e5a 083f 5ce9 a3bf 2704 90bd
000000e0: 56f3 91be 776e 103f e204 3b3f 985e c7bf
000000f0: 0822 cb3f 1b9b f63f 8ae5 dc3d 56cc c63f
-0.34384537 -1.871175 0.20607051 0.76543474 -0.4512145 0.0100254705 1.4143806 1.2024744
0.010736263 -0.66894716 -0.22788106 0.069157034 0.9364717 -0.88384664 -0.053555515 0.03544293
-0.0958489 -0.26991144 -0.23916736 -0.43443394 0.6124671 0.7066724 0.92951566 -0.16027434
1.1235455 -0.12867959 -0.25716835 -0.38688147 -0.67601573 0.80989957 -0.47829404 -0.046991877
1.2128135 -1.0179394 -0.0010733025 0.9126352 -0.06732797 -0.20842429 -0.9888678 -0.7620475
0.7763294 0.22405861 0.064864516 0.28866464 0.94938123 0.05165652 -0.18265612 -0.9647028
0.38390493 -0.5566378 -0.21288744 -0.36222762 -0.9489275 0.53262603 -1.2805591 -0.07032042
-0.28505963 0.56418556 0.73054326 -1.5575743 1.586976 1.9266084 0.107859686 1.5531108

model.bn1.running_var f4 [64]
00000000: 53ed d13d b96a e53d cf69 b53c f49c 0c3e
00000010: 3ab0 5f3d 12c0 0f3d 0fc1 963d b1a7 b43d
00000020: dd5b d43a ad06 753d 407f 373e 3d27 963a
00000030: 2987 a73d 7134 2f3d e0e5 e13d 6ef0 423b
00000040: 2aad 963b c8b1 ca3d 07d0 0d3e 4c5f 333d
00000050: 8bf0 023e 475e 033e cabb 573d 013a 1e3c
00000060: 7d2b 333e c619 ae3d 06cc 623d 1db5 eb3d
00000070: 1736 9c3d e8d0 823d 1977 d73d b37d 8f3d
00000080: 1cb7 2c3e 1fea 963d 57cb d03b 2b53 673e
00000090: 369e ab3b 5ba0 213c f3e4 6e3e 2356 ee3d
000000a0: c378 ae3d 54e1 023d 3c91 2c3b 7a4d 083e
000000b0: 5445 e03d 3acc 9a3c 3e9e 8c3c 8cfe ad3d
000000c0: 191e fe3d 47a3 093e ee46 0f3e d005 0d3e
000000d0: e095 013e a048 953d 75f6 063e 6a96 d73b
000000e0: a1f5 973d 2687 0c3e cfb3 f33d 816c bf3d
000000f0: dda1 623e 0e3f f23e 2f46 753c e662 e73d
0.10250344 0.11201996 0.02214518 0.13731748 0.054611422 0.035095282 0.07361042 0.08821047
0.0016201694 0.05982082 0.17919636 0.0011455786 0.08180077 0.04277462 0.11030173 0.0029745358
0.0045982795 0.0989719 0.13848887 0.043792054 0.12787072 0.12828933 0.052669324 0.009657384
0.17497058 0.0850101 0.055370353 0.11509154 0.07627504 0.06387502 0.10520763 0.07006397
0.16866726 0.07368874 0.0063718962 0.2259032 0.005237366 0.009864892 0.23329525 0.11637523
0.08519127 0.03195317 0.0026331684 0.13310805 0.10950723 0.018896211 0.0171653 0.084958166
0.124080844 0.13441192 0.13991901 0.13771749 0.12654829 0.07289243 0.13179953 0.00657921
0.07419897 0.1372343 0.1189953 0.09346867 0.22132058 0.47313732 0.014970346 0.1129816

model.layer1.0.conv1.weight f4 [32, 64, 3]
00000000: 3e1f c2bc 1409 ea3d 7256 e43d 8310 60be
00000010: a6db 64be 522b cf3c 2175 f23e 55f7 693e
00000020: 5bbc 12be 9ea4 113e ef79 1b3d e0ab 3d3d
00000030: a545 80bd 8e72 18bd 516c 163e f366 9dbe
00000040: fbd0 cdbe 4b4f b5bd 71c9 89be 4c5d d63d
00000050: 9911 f83d 15ef 3a3c f424 ab3d b9df 9b3e
00000060: 0d2a a03e 4282 04be 201a b5bd c433 463e
00000070: 13ee 9e3d dcde 6dbd f056 03bc 5e9a 87be
00000080: 693a 183e cfd3 e7be 1d31 01be 366b 7c3d
00000090: fef1 953d a4a3 023d 4cd1 9c3d 8985 8b3d
000000a0: 2d96 ee3d d1d3 223e 6a6d 373e 102f e5bd
000000b0: 0fc5 14be ffd9 cf3c 8ec0 553e c317 a3bd
000000c0: 52e2 813e feee 4f3e 6ba0 0a3e 0d6e b6bd
000000d0: 4195 803d e8b4 9f3d 6311 40be 0c28 61bd
000000e0: 840d cebd db65 c6bd b9db aabe 621e 453c
000000f0: 4190 083e 8ade 8e3b be95 11bc 255a e1bd
00000100: 975b 3a3c 9bcd 373e 252d 64be ea56 f1bc
00000110: e58e a1bd 7acc 473e 1792 6f3d 4ff0 ad3e
00000120: aafe 84bd dd6a 4cbd fc2f ce3c 1ed1 7a3d
00000130: 831c c1bd 6959 29bd c875 74bd ab77 953d
00000140: 0bde a8bd de89 593d ccfb 65bd 935a 63be
00000150: 99be 073e 8dd5 85bd dfff e13d 1fe6 54be
00000160: a4fb 2e3b 595c 08be a4f7 d0bd b59b 643d
00000170: 8ce1 b3bb 44b5 333d be12 57be b6e8 76bd
00000180: 4ecd 83bd 4504 4fbe 78b9 a4bc 729d b93d
00000190: 9185 98bb 919d 113d 6f3e 91bd 669b 223e
000001a0: f187 893e 9dfb b43d 908b 033e 2e80 863e
000001b0: 4629 843e 8870 303e f4e7 263e 0aef aa3e
000001c0: 785b a63e a191 083d 1d61 7e3d 5e5f 463c
000001d0: 704b 62be 1f59 d4be fe2e a8bd 8d20 5abd
000001e0: 18b0 e9bd 3625 9f3d c7ea 1d3d d39e b0be
000001f0: d6aa 9cbe 816a 143e a084 b73c d923 543e
00000200: ca5a 563d 3906 163e ad0b c83c 18ee c0ba
00000210: 00e5 d23d 219b e83d 869f 713c f18a 443e
00000220: 41fd 903e 6679 63bc a38f cb3d 2d2f 8dbb
00000230: 59eb 93bd a5f4 3abc f309 793c b371 803e
00000240: c963 483d e37a 8fbe 23bb d53e 3e54 9b3d
00000250: fc65 9d3c c138 37be 9346 35bd 75c7 be3d
00000260: b4a7 2abe 9dd5 dc3c f8dd 4a3e bdb0 5fbd
00000270: 633e 88bd 12e2 58be ce30 41be 71f1 b0be
00000280: 3cea 95bc 2ecf 7abd d555 123d 0733 783d
00000290: 185d aabe cb5f 9f3d 356d 7f3e d025 dd3e
000002a0: 0beb 69bb 41da a2be 0962 893c 02a0 04bb
000002b0: 382f eebc 5925 4abe bca0 d13c 5074 c9bd
000002c0: db31 59be 6072 bcbd e676 153e 48d3 fe3d
000002d0: da9a 20bd c79b eabd fd52 31be bf3f a4bd
000002e0: f992 9fbc 90ae 72be 4568 1d3e 4785 153e
000002f0: bf52 0ebe 97c5 a53b e963 0fbe 57c1 5d3d
00000300: 016c 9c3e f64b a93d aa49 21be 4049 4ebe
00000310: 0e31 ccbd e2c7 cf3c 5590 e4ba cf3e 83bd
00000320: 14ce 9abe 3578 ecbe 89c6 53be 4ef0 4fbe
00000330: 8de0 32be 67eb 1f3e c2d1 ed3d 2827 563d
00000340: f03b 2dbd 5ecf 43be baba 28be 6ba3 02be
00000350: 93bf 58be e83e 19be 1ea9 62bc 6502 a7bd
00000360: 1ef7 b5bd b853 20be a8b9 c2be 87a9 29bd
00000370: c034 2d3e 1934 23bd cebf 0ebe 4fa5 d43d
00000380: 6099 3e3e 79cd 97be ccaf c5bc 960d ff3d
00000390: e66e a2be 790a 28bd 8c8e 143d 6328 91bd
000003a0: e211 d3bc d23f 9f3d d344 e8bd 7306 b2bd
000003b0: ea2b 583e e004 543e e0e4 b9bd 2f0d cdbd
000003c0: 7230 eabb b364 913d 85fe 833d e74c 7bbe
000003d0: ce10 9fbe f0ce b3bd 9fd0 a1bd 6eda 373d
000003e0: 7cb6 ff3c dd7b 42bd 05f5 7d3e d591 643e
000003f0: fe9a 78bc 5392 63bd 138d b9bd 1504 813b
-0.023696538 0.11427513 0.11149301 -0.21881299 -0.22349414 0.025289211 0.47354987 0.22848256
-0.14329664 0.14222953 0.03795808 0.04630649 -0.06263284 -0.037218623 0.14689757 -0.30742607
-0.40198502 -0.088530146 -0.269115 0.10467014 0.121127315 0.011409541 0.083566576 0.30444124
0.31282082 -0.12940314 -0.088428736 0.19355685 0.07760253 -0.058073863 -0.008016333 -0.2648496
0.14866032 -0.45278785 -0.12616391 0.06162568 0.07321547 0.03189434 0.07657108 0.06812579
0.116497375 0.15901114 0.17912832 -0.11190617 -0.14528297 0.025372503 0.20874235 -0.079635166
0.2536798 0.20306012 0.13537757 -0.08907709 0.06278468 0.07798177 -0.18756633 -0.054969832
-0.10061172 -0.09687396 -0.3337076 0.01203117 0.13336278 0.004360025 -0.008885799 -0.11003522
0.011374376 0.17949526 -0.22282846 -0.02946039 -0.07888583 0.19511595 0.05848893 0.33972403
-0.06493886 -0.0499066 0.025169365 0.061234586 -0.09429266 -0.041345034 -0.059682637 0.072982155
-0.08245476 0.053109996 -0.056148335 -0.2220252 0.13256301 -0.06534872 0.11035132 -0.20790909
0.0026700282 -0.13316478 -0.10203484 0.055812556 -0.0054895338 0.04387404 -0.21003243 -0.060280524
-0.06435643 -0.20216472 -0.02010797 0.090632334 -0.004654594 0.035550658 -0.070919864 0.15879592
0.26861528 0.08837054 0.12846208 0.26269668 0.2581274 0.17230427 0.1629942 0.33385497
0.3249166 0.033342008 0.062104333 0.012107698 -0.2209909 -0.41474244 -0.08212088 -0.0532537
-0.1141054 0.07770769 0.03855398 -0.34496173 -0.30599087 0.14493753 0.022402108 0.207168
0.052332677 0.14650811 0.02441963 -0.0014719395 0.102975845 0.113577135 0.014747506 0.19193627
0.28318217 -0.013883924 0.09939506 -0.0043086023 -0.072226234 -0.011410867 0.015200126 0.25086746
0.048923288 -0.28023443 0.41744336 0.07584427 0.019213669 -0.17892744 -0.044256758 0.09315387
-0.16665536 0.026957327 0.19811237 -0.05461191 -0.06652524 -0.21179989 -0.18866274 -0.34559205
-0.018300168 -0.06123274 0.035726387 0.06059554 -0.3327415 0.07781943 0.24944003 0.4319291
-0.0035693075 -0.3180714 0.01677038 -0.0020236974 -0.02907525 -0.1974081 0.02558934 -0.09836638
-0.21210425 -0.09201503 0.14596137 0.124426425 -0.039210178 -0.114554934 -0.17316814 -0.08019971
-0.019479262 -0.23699403 0.15371807 0.14601623 -0.13898753 0.005058955 -0.14002956 0.05413946
0.3055115 0.082664415 -0.15750757 -0.2014513 -0.09970294 0.025363866 -0.0017438034 -0.06408464
-0.3023535 -0.4618546 -0.20681204 -0.20306513 -0.17468472 0.15617143 0.11612274 0.052283436
-0.04229349 -0.19122073 -0.1647748 -0.12757652 -0.2116683 -0.14965403 -0.013834266 -0.081547536
-0.088850245 -0.15656936 -0.3803227 -0.04142144 0.16914654 -0.039844606 -0.13940355 0.103830926
0.18613195 -0.2964895 -0.024131678 0.12453763 -0.31725234 -0.041025613 0.036268756 -0.07087781
-0.025765363 0.07775845 -0.11341252 -0.08692636 0.21110502 0.20704985 -0.090768576 -0.1001228
-0.0071468884 0.07099285 0.0644503 -0.24541055 -0.31067508 -0.087797046 -0.079011194 0.044886045
0.031214945 -0.047481406 0.24800499 0.22321256 -0.015173672 -0.055559468 -0.09060111 0.003937254

model.layer1.0.bn1.weight f4 [32]
00000000: fac3 5f3f b09c 453f 851d 4e3f bd99 4b3f
00000010: 1f73 3f3f 8b02 493f a7bf 6a3f eac6 4b3f
00000020: 0f25 743f 4c00 6d3f f267 403f 7266 483f
00000030: 9139 5a3f deb7 5f3f 53b2 823f da54 413f
00000040: 2989 613f 4db2 623f f545 643f 83fd 5a3f
00000050: 6511 6b3f f35d 773f 4b3b 313f 190b 5b3f
00000060: ed5a 633f 4fe8 483f e0a0 5b3f df2a 573f
00000070: 5353 453f 4f6a 583f 4c7b 5c3f 637d 703f
0.8740841 0.7719221 0.80513793 0.7953146 0.74785036 0.78519505 0.9169869 0.79600394
0.95369047 0.9257858 0.7515861 0.7828132 0.8524409 0.87389934 1.021067 0.755201
0.88099915 0.88553315 0.89169246 0.8554308 0.91823417 0.9662773 0.692311 0.8556381
0.88810617 0.78479475 0.8579235 0.8404979 0.7708027 0.84537214 0.86125636 0.93941325

model.layer1.0.bn1.bias f4 [32]
00000000: 7aaa e03b 1c31 34be d162 14be 7942 3dbe
00000010: 176d 8bbd ede2 9bbd 11f8 2abd cffe ecbd
00000020: 2cf1 c0bd 47e8 b63d 6600 dcbd ca2b 27be
00000030: f517 8bbe e2a4 2fbd f5f4 5bbd 5acf b5bd
00000040: f10d a2bd 2f4d 94bd 2c64 63bd 3e2f a73d
00000050: eb53 afbd 09f0 d9bc fe01 183d ff4f adbd
00000060: 6976 b1bd 86d9 71bd 40b0 2fbd 9f91 8cbd
00000070: a8fb cabd 7e19 6cbd 6715 1cbc 2e72 4bbc
0.00685626 -0.17596859 -0.1449082 -0.18482389 -0.068079166 -0.07611642 -0.04174048 -0.115720384
-0.09421 0.08931022 -0.107422635 -0.16325298 -0.27166715 -0.042881854 -0.053700406 -0.0887744
-0.07912815 -0.07241284 -0.055515453 0.081633076 -0.08560928 -0.026603715 0.037111275 -0.08462524
-0.08665163 -0.059045337 -0.042892694 -0.068637125 -0.09911281 -0.0576415 -0.009526587 -0.012417359

model.layer1.0.bn1.running_mean f4 [32]
00000000: 5dab d83f dad0 c0bf 9bf2 9cbf 3541 b63e
00000010: 02da 36bf 0628 843e a15d 4c3d 2ec4 0ec0
00000020: ad46 27c0 1fbc 14c0 6fe2 8abe fdd0 623e
00000030: c0f2 0ebf 3cc6 bbbf 44e6 07be ecbf 2fbe
00000040: 6517 9cbe 966d 963f 639a 4fbf 7cef 3cc0
00000050: eed4 09c0 a8bb aebf 5dac c53f 3749 17c0
00000060: 91cc 27bf 8947 8f3e 1595 14c0 660a 2e3f
00000070: 238f d23f 1717 1040 5deb 4ec0 8d5f 053f
1.6927296 -1.5063736 -1.2261537 0.35596624 -0.71426404 0.25811785 0.04989398 -2.2307239
-2.6136887 -2.323982 -0.2712588 0.22150035 -0.5583916 -1.4669871 -0.13271433 -0.17163056
-0.304866 1.1752193 -0.8109495 -2.952117 -2.1536212 -1.3651018 1.5443226 -2.3638437
-0.6554652 0.27984264 -2.3215992 0.67984617 1.6449932 2.2514093 -3.2331154 0.52098924

model.layer1.0.bn1.running_var f4 [32]
00000000: 8dbd 8740 84e9 4d40 0126 7040 58dc 4140
00000010: b862 4340 01a0 3540 43bb 1140 a98b 6340
00000020: ab66 3f40 b221 0040 4224 3140 da15 8540
00000030: 0b1c 0540 5a40 3240 2d9e 1d40 1bb0 ab40
00000040: 60c5 f93f d1d3 1e40 2578 a740 892a 7840
00000050: 7ea2 4a40 7819 8f40 97cc 5740 0e6f ba3f
00000060: 58ae 8d40 261d 3940 5c59 9340 1bef 1b40
00000070: af7e f33f 4163 3e40 a85c 6740 88c9 2540
4.2418885 3.2173777 3.7523196 3.0290737 3.0529003 2.8378909 2.2770545 3.5553992
2.9906414 2.0020566 2.767838 4.1589174 2.0798366 2.7851777 2.4627793 5.3652472
1.9513359 2.4816782 5.233416 3.8775961 3.1661677 4.471859 3.3718622 1.4565141
4.427532 2.892404 4.604658 2.4364688 1.9023036 2.974808 3.6150303 2.5904255

model.layer1.0.conv2.weight f4 [32, 32, 3]
00000000: c9e1 c4bc 71f8 033e b9f3 3e3d 312f 11bc
00000010: d90f 783c c18a bdbb ee6b 173e 9c4a a0be
00000020: aa34 40be 59ff 9fbe 3b13 ba3d 0119 13be
00000030: d992 093c 6654 f23c 8b52 873d 6429 19be
00000040: 8fe8 edbd 3513 923c 5224 1dbe a498 ae3c
00000050: 17af bcbd cdcc b43e 0ee2 08be 7f23 7fbe
00000060: 328c 153d e299 cbbd 2608 723e 56c2 f03c
00000070: a444 fc3a a7e8 023e 53f9 b1bc 3a0e bbbe
00000080: 3744 07be a81f a03d 212b c23b 4214 9d3d
00000090: 8e21 903e 1e3d d9bd e304 5a3d ac4c abbe
000000a0: 90bf a53d b08c d83e 74db 603e 2ec3 383e
000000b0: 7d13 c4bd 4c77 e7bd ac37 c73e 4436 013f
000000c0: b652 db3e b36b 66be b4bc 9a3d 9090 67be
000000d0: cd6a 12be f389 64be 072e 1cbe 4bfe 833d
000000e0: 2447 243d ae91 06be 7928 82bd 6ce6 3f3d
000000f0: 0080 0ebe 8a55 4b3e 5cf4 3abe fd17 5bbd
00000100: 87c9 20be dcb1 523e 5c6b ae3d 7580 04be
00000110: 45c8 afbb f9ce 87be e216 193e b1b9 043d
00000120: 7265 90bd afab ce3e 41fa 053e b0fd 133e
00000130: d755 a8be 1456 1abd bf9b 18be 9583 fc3d
00000140: a374 c13d 164a a53c 6557 1fbd 32f2 f6bd
00000150: ddb3 85bc 7887 183d b2bb 0b3d 01b9 573e
00000160: 7e19 75bd b2ef 193e ae7d 86bd 48ee 55be
00000170: f8a8 c23d 788d ee3b 29d5 473d a3eb 723e
00000180: 31cc d43d 62ba 133e 393f 9d3a df6f 2dbe
00000190: ad30 94be 36d3 8c3e 78d1 7e3d 3c03 42bd
000001a0: 2ac5 503e fa80 113e ba6a 43be e79d 6dbd
000001b0: 96fa 8fbd dc12 163e cb5c f3bd 897f 65bd
000001c0: e520 fbbc 294d 25be 54fd 50be cffd d7bc
000001d0: 2fc8 56bb c1a6 11be f01c 8b3c 4375 9d3d
000001e0: a7b4 89be 0fb2 c43e 3ad3 56be ec1f a3bd
000001f0: 250c 193e b56b 43be 49e4 f6bd 9688 c33d
00000200: eca5 483d 7818 10bd b013 6cbe eaa0 b63d
00000210: cdc1 babe 1c46 37be 11e2 de3c eaf6 8cbe
00000220: 26b5 ab39 8f26 01bd e0eb 023d 1fbf d93d
00000230: 0ce0 173e 84ee 14bd c210 653e 8eb4 3a3e
00000240: 2f0e 73be a51f 2e3d a529 0e3d 9b1d 093e
00000250: 1922 233e 3ef5 293e b2d1 a5be ed22 b4bd
00000260: c2b3 173c fbc3 6bbe 4c7b 8cbc eada 04bd
00000270: 8f45 0fbe 0b3b 83be 9966 89be a5bb 3abe
00000280: d1f8 cb3d 41e8 873d 7a24 843d f042 25be
00000290: 0759 9b3d bf0b 9e3d 502e 3e3e abad 60be
000002a0: 7139 76be 2a8d acbe 5ef8 c4be aee4 b43e
000002b0: 4a39 88bc 0be8 483c e20a 06be c5c8 d0bd
000002c0: 3e29 1a3e f47a 4d3d a561 353e d0e9 f5bc
000002d0: 5870 d23a bbb7 823e c3ae e03e 7279 a4be
000002e0: 976c 78be ccf4 a63e 8006 84bd b8ad 693e
000002f0: 6faf c23b cc57 d43c f0e5 cfbc 140b 973e
00000300: 1be4 0cbc 215e c9bc 659e f83d 23da 1d3c
00000310: 0846 473d bee2 4cbe 973b bb3d f078 e6bd
00000320: d38d 0a3d 90f4 fa3d 57d2 3abe 7149 6e3e
00000330: 4062 1dbe d363 d5bd ec44 4abd 9361 15be
00000340: 3466 6f3e 2787 043e 221c 7b3d 569b ac3c
00000350: 9b0b 673e 20aa 67bd 82d2 cbbd d14c 1d3c
00000360: be50 2fbd 8a5a e5bc f620 5b3d 5cd1 46be
00000370: 462b 3dbe 5afe a4be 85a6 443e 79eb e6bd
00000380: 3ca2 fbbd f5d8 2a3e 4b39 7d3e 197f 2bbd
00000390: 544d 573e 7d56 93ba a8ca b23d 87ca 78bd
000003a0: fd05 033c 6c84 0d3c 94a6 8cbd ed4f 853e
000003b0: 7aa8 eabd 33da 233e 340b 173e 094b e43d
000003c0: ecc1 59be f313 853b 396e 0e3e c00d 623e
000003d0: d18e 903e c887 4d3e 121d bd3c 0fc1 93bd
000003e0: d375 4fbe a137 a53e 6564 abbd b806 fb3d
000003f0: 1f29 80bd 4d70 073d 2073 623b 7c03 b73b
-0.024033444 0.12887742 0.04661915 -0.008861349 0.015140497 -0.005784363 0.14787266 -0.31306922
-0.1877009 -0.31249502 0.09085699 -0.14365007 0.008396828 0.02958126 0.06607541 -0.14957196
-0.11616623 0.017831424 -0.15345886 0.02131302 -0.09213083 0.353125 -0.13367483 -0.24915884
0.036510654 -0.0994146 0.23635921 0.029389542 0.0019246531 0.12784062 -0.021725332 -0.36534292
-0.13209616 0.07818538 0.0059255515 0.076698795 0.281506 -0.1060736 0.053227317 -0.33456933
0.08093178 0.42294836 0.21958715 0.18043205 -0.095740296 -0.11302051 0.38909662 0.5047343
0.4283654 -0.22502021 0.075555235 -0.2261374 -0.14298554 -0.22318248 -0.15251933 0.06444987
0.040106907 -0.1314151 -0.06355376 0.046850607 -0.13916016 0.1985685 -0.18257278 -0.053489674
-0.15701877 0.2057566 0.08516571 -0.12939627 -0.00536445 -0.26525095 0.14950135 0.03240365
-0.07050599 0.4036536 0.13083746 0.14452243 -0.3287799 -0.037679747 -0.14903162 0.12329785
0.09446075 0.020176928 -0.038901705 -0.12057914 -0.016321117 0.037238568 0.034114547 0.21066667
-0.059838764 0.15032843 -0.0656694 -0.20891678 0.095048845 0.007280048 0.04878727 0.23722701
0.10390509 0.14426568 0.0011996991 -0.16937207 -0.28943387 0.2750489 0.062211484 -0.047366366
0.20387712 0.14209357 -0.19083682 -0.058011916 -0.07030217 0.14655632 -0.11882933 -0.05602983
-0.030655334 -0.16142716 -0.20409137 -0.026366143 -0.0032773127 -0.14223768 0.016981572 0.076883815
-0.2689564 0.38417098 -0.20979014 -0.07965073 0.14946039 -0.19084056 -0.12055261 0.09547536
0.04898636 -0.035179585 -0.23054385 0.08917411 -0.36475983 -0.17897838 0.027207406 -0.2753213
0.00032750628 -0.031530913 0.03196323 0.106321566 0.14831561 -0.03636028 0.22369674 0.18232939
-0.2373588 0.042510647 0.034707684 0.133902 0.15930976 0.16597459 -0.32386547 -0.08795724
0.009259166 -0.2302398 -0.017148636 -0.032435335 -0.13991378 -0.25630984 -0.26836088 -0.18235643
0.09959567 0.06636096 0.0645227 -0.16138816 0.0758534 0.07717084 0.18572354 -0.21941249
-0.2404535 -0.3370145 -0.3847074 0.3533072 -0.01662888 0.012262355 -0.13090089 -0.10194544
0.15054795 0.050166085 0.1771303 -0.030018717 0.001605521 0.255308 0.43883333 -0.32123905
-0.24260174 0.3260864 -0.06446552 0.22820175 0.0059413235 0.025920771 -0.025378197 0.2950064
-0.008599306 -0.024581017 0.12139586 0.009634527 0.04865077 -0.2000837 0.09142225 -0.11253536
0.03382666 0.12253678 -0.18244301 0.23270203 -0.1536951 -0.104194306 -0.049382135 -0.14588003
0.23378831 0.12942182 0.061306126 0.021070164 0.22563021 -0.05655873 -0.099522606 0.009600834
-0.04280161 -0.027997274 0.05349823 -0.19415802 -0.18473539 -0.32225305 0.19204147 -0.112753816
-0.12286803 0.16684325 0.24728887 -0.041869257 0.21025592 -0.0011240985 0.0873006 -0.06074002
0.007997033 0.008637529 -0.0686771 0.2603754 -0.114579156 0.16001205 0.14750367 0.11147124
-0.21265382 0.004061216 0.13909234 0.22075558 0.2823396 0.20071328 0.02308515 -0.072145574
-0.2025979 0.32269004 -0.08368758 0.12257141 -0.06257843 0.033066083 0.0034553483 0.005585132

model.layer1.0.bn2.weight f4 [32]
00000000: e374 5a3f a842 503f 9f77 513f 3777 403f
00000010: 8bd2 803f 6f8b 513f 3740 623f 91a3 623f
00000020: 8f67 5e3f 0f9e 5e3f b737 473f cc11 603f
00000030: c4b1 793f 1b6e 4e3f 1260 643f a931 603f
00000040: 3590 693f 74d3 363f 043d 4d3f 9218 503f
00000050: 1efe 883f 425c 7e3f cbd7 5b3f 1295 363f
00000060: 1886 613f 606c 683f 5eb1 513f 53a3 563f
00000070: a1cc 4b3f 8e73 7f3f 503c 503f 74a8 4c3f
0.85334605 0.8135171 0.8182315 0.7518191 1.0064253 0.81853384 0.88379234 0.8853083
0.8687677 0.8695993 0.7781939 0.87527156 0.97536874 0.8063676 0.8920909 0.87575775
0.9123567 0.714164 0.8017123 0.8128749 1.070255 0.99359524 0.8587615 0.71321213
0.88095236 0.9079037 0.81911266 0.83842963 0.79609114 0.997857 0.8134203 0.7994454

model.layer1.0.bn2.bias f4 [32]
00000000: 5a76 143e 8bfb 14bd c15e 213d 1d0d c9bd
00000010: 0e0c 72bb 833c 7abc 6749 82bd 43be 623d
00000020: 4dd3 20be 5926 0ebb c780 053e 51b2 66bc
00000030: c918 a7bd 3954 1ebe ab27 bbbc 9241 e7bd
00000040: 2788 963d 9e5e 86bd 1fcb 913d 5318 1dbd
00000050: 8a29 dcbd e441 c03d 1b9e 84bd 849f 73bd
00000060: b49c 90bd 0220 9b3d 716b a63b 4790 313c
00000070: 9636 bdbb 5aa0 fabc 25e3 423d f417 8fbc
0.14498273 -0.036372703 0.039397005 -0.09816954 -0.0036933455 -0.015273216 -0.06361657 0.05535723
-0.15705605 -0.0021690337 0.13037406 -0.0140806 -0.08159024 -0.15461816 -0.022846064 -0.112918034
0.07350188 -0.065610155 0.071188204 -0.038353276 -0.107501104 0.09387568 -0.06475469 -0.059478298
-0.07061139 0.075744644 0.005078726 0.010837621 -0.0057743294 -0.03059404 0.047579903 -0.017467476

model.layer1.0.bn2.running_mean f4 [32]
00000000: c42d 273e 2df8 edbe 1c23 2d3e 4ce9 84be
00000010: f39e 193d fa49 80bf df55 f73e 1ca9 85bf
00000020: 3787 7e3f b39c 153f 7abd 5abf 0b65 d6be
00000030: 35c4 6cbd ea50 4fbe 100d 59bf 80d6 093f
00000040: 00ed c43e dd83 843f 7186 25bf 13b2 3f3f
00000050: 5ff0 2dbf 4e1a 083f 7b87 61bf 441d f6be
00000060: 406c 5fbf 04dc bdbc 99aa 06bf ed23 413f
00000070: 26a6 103f 91bb 24bf e8b0 8e3e f96a 63bf
0.16326052 -0.46478406 0.16907924 -0.2595924 0.0375051 -1.0022576 0.48307702 -1.0442233
0.9942507 0.5844223 -0.8544537 -0.41873965 -0.057804305 -0.2024571 -0.84785557 0.53842926
0.38462067 1.0352741 -0.64658266 0.74881095 -0.679449 0.5316514 -0.8809735 -0.48069203
-0.8727455 -0.0231762 -0.5260406 0.75445443 0.5650352 -0.64348704 0.27869344 -0.888351

model.layer1.0.bn2.running_var f4 [32]
00000000: a9de 213f 2642 783f 26e8 873f c8c2 463f
00000010: 9596 3d3f aa6d 1e3f 25cc 1b3f 642c 523f
00000020: 3505 133f afa6 353f 7823 823f 2412 213f
00000030: a149 053f 9a1f 0e3f 6216 7e3f dd9c 3d3f
00000040: 71f9 0a3f fa14 4c3f 26b8 223f 6435 4a3f
00000050: 8653 333f 6629 2f3f 3d68 2a3f e37f 383f
00000060: fe25 c63f b7dc 1e3f 66df 413f 3bbf 3b3f
00000070: 6f82 273f 7cce 823f 4ba0 053f 9770 453f
0.6323038 0.96975935 1.0617721 0.7764096 0.74057895 0.61886084 0.60858375 0.82098985
0.5742982 0.70957464 1.0167074 0.62918305 0.52065474 0.5551697 0.99252903 0.7406748
0.5428687 0.7971951 0.6356224 0.7898772 0.7004932 0.68422544 0.66565305 0.7207014
1.5480344 0.62055534 0.75731504 0.7333867 0.654334 1.0219264 0.5219771 0.77124923

model.layer1.0.downsample.0.weight f4 [32, 64, 1]
00000000: 7f0e 30be 8f74 00be f737 69be fbd0 42bd
00000010: 483a 8cbe d7de 85bd 0e8d 023f 1fdc 843e
00000020: 492a d6be 4b2c d5bc ce3c d4bd a42e 8d3e
00000030: aaac 913e 5c1a a83e 7ad9 babc e684 c13d
00000040: 8704 2cbe 90f9 443e 8278 3c3d 35db 77be
00000050: e0f1 36be f0af 133d b037 bf3e 35d5 1ebd
00000060: b844 a7be f1ee eb3c 8390 27bd 8571 e7be
00000070: 3830 223f 9902 b63d 81ab bc3d 69bd 913e
00000080: 3f00 a93e d19a bbbc 3ce1 063d 4e08 b5be
00000090: deb0 22bd f621 df3b 9241 133d 86dd adbd
000000a0: 1b3e 2f3e 5611 2f3d d159 cdbc d798 9c3d
000000b0: ab0d 7c3e 2f03 22be 7021 d1be 8864 10be
000000c0: f638 683e ff8e 31be efbf 093e 0796 3ebd
000000d0: 940b 1e3d 26f2 e5be 6f5f 0ebe c7cc 82be
000000e0: 2dd0 783e 7062 c43d 18cf ac3e 7406 973e
000000f0: eb96 c33d 3b6d a2be 1ddf 33be f786 53bd
00000100: 1be5 993e 9fb4 01bf 752c b53d 96e6 8f3e
00000110: 4525 4fbe d138 6ebe 8162 533e 8de2 d03e
00000120: 56ff 5bbe eac8 21be fdb4 f63d 9ced 6dbc
00000130: b6dc 1a3c 1595 e8bd 0220 cbbd 489c 253f
00000140: 0f8c 8e3e 5301 fbbe b787 773d 6157 0f3e
00000150: efc3 29be 404b 9ebe 4e84 983e 328d 48bd
00000160: dc24 2a3c c58b b03d 7dc4 b3bd f0f1 94be
00000170: a182 713e 9f65 b8be 3992 af3d b79d cbbe
00000180: 3e5c babc 2adc 123e 7621 bf3d 7e8b 15be
00000190: 5a4c e53d d5e8 a2bd 3bf3 4cbd a879 c0bc
000001a0: 2e13 0fbe c6c1 c0bc 5b51 a23c 6038 863e
000001b0: 46d8 62be 8095 b73e 2124 4dbc f6ad 78bd
000001c0: dcd5 5fbe 1037 db3e 169e 723d ebda 00be
000001d0: 2fa2 103c 82c7 00bf 8d6f d0be 657b d5be
000001e0: 5a02 68be 2b62 f4bc 74b6 86be de0f 9cbe
000001f0: 6dd9 f7bd ff8e 623e 8b46 9b3e bcf3 463d
00000200: 6aa8 033e c79f 9ebe acb1 383d c1eb 383d
00000210: 78eb 1c3c b3f2 e93c d447 84be eed9 8a3d
00000220: 226f 2bbd c51b 513d 154c d83e 5f28 093e
00000230: ef21 733e 3371 77be 9106 953e a007 9a3e
00000240: 170c dcbe 5624 913e 46d9 023f 904c 003e
00000250: faaa 89be 34db 853e 5673 8dbd 51ff 843d
00000260: 9c9f ee3d 59f5 16be 7155 113e 09b3 b4bc
00000270: 1689 5d3e 4756 2b3e 1a6c cd3c f31e 81bd
00000280: f696 a53e e1ab 1f3d 1793 543e 0788 a43d
00000290: dd27 963e 3118 b93e 4988 3fbe 0ca6 7cbd
000002a0: f8cb 0cbe 77ed 67bd 4d39 a43e ee41 a3bd
000002b0: 8f18 bbbe 2bff 643d 2950 adbd 26a3 3a3e
000002c0: 2090 253d 1410 aabe 43f7 563e 54d2 483e
000002d0: 2d7a 5d3d fc82 e93d f63c 0e3e 839a 46be
000002e0: 8ad0 a13e 5bcf efbc 03d0 dd3e 4af3 193e
000002f0: c8c4 bc3b ab88 c1be 7c19 c63e 402b b53d
00000300: bee8 e5bd 211c 91be ccc5 09be f3f9 63be
00000310: 3f73 b4bd 6c52 d53e cf2b 4d3d aebb 1b3f
00000320: b15e 89bd 4632 60bd b91b babe b2ea 98bc
00000330: 1e45 aa3e c2c4 313e 5a2b 223e 3c02 d1be
00000340: 0614 8ebd dcd1 26bc 1893 91be f039 5f3c
00000350: 9cf7 07be def9 98bd 6dc9 3ebd b715 76bd
00000360: fba3 9f3e bc9d 6d3e b2f6 373c fd41 44be
00000370: 2d2c df3d 75de 9e3d 4985 53be 025d 403e
00000380: 7671 49be 715c d03d 5938 663d c162 653e
00000390: 26fb e73d 98f6 e13d ee83 89bd cab5 313e
000003a0: b770 d5bd b2fc 93be 03ec af3c 22d2 3c3e
000003b0: de84 563e a137 bd3e 573f c2be 6297 01bf
000003c0: efaf 4d3e d75f 31be 795f 033f 27af a4bd
000003d0: 65a8 093f 6e47 0f3e c0f8 cabe 037b 3f3e
000003e0: c28a 49be 62d3 963e bf14 3fbe 00ea dbbd
000003f0: f346 403e 5690 213e e4ca bfbb 719f 033f
-0.1719303 -0.12544464 -0.22775255 -0.04756258 -0.27388215 -0.06536644 0.5099648 0.2594919
-0.41829136 -0.026022097 -0.1036316 0.27574646 0.28452045 0.3283261 -0.022808779 0.094491765
-0.16798602 0.19235826 0.046013363 -0.24204715 -0.17865705 0.03605646 0.37347174 -0.03877755
-0.32669616 0.02880046 -0.0409093 -0.45203796 0.63354826 0.08887214 0.09212399 0.2846482
0.33008 -0.02290097 0.032929644 -0.35357898 -0.039719455 0.0068094684 0.035951205 -0.08489518
0.17113535 0.042741142 -0.025067242 0.076463394 0.24614589 -0.15821527 -0.40845823 -0.1410085
0.22677979 -0.17339705 0.13452123 -0.046529796 0.03858526 -0.44911307 -0.13903593 -0.25546858
0.24298163 0.09589088 0.3375175 0.2949711 0.0955027 -0.3172396 -0.1756558 -0.051642384
0.30057606 -0.5066623 0.0884637 0.2810561 -0.20229061 -0.23263861 0.20643045 0.40797845
-0.21484122 -0.15799299 0.120462395 -0.0145219825 0.009452036 -0.1135656 -0.099182144 0.6469159
0.2784123 -0.49024448 0.060432162 0.13998176 -0.16578649 -0.30916786 0.2978844 -0.04896278
0.0103847645 0.08620409 -0.087777115 -0.29090834 0.23584987 -0.3601503 0.08572812 -0.39768764
-0.022749063 0.14341798 0.09332554 -0.14603993 0.111962035 -0.079545654 -0.05003665 -0.02349551
-0.1397216 -0.023529898 0.019814184 0.26214886 -0.22152814 0.35856247 -0.012520821 -0.060712777
-0.21858925 0.42815447 0.059232794 -0.1258351 0.00882773 -0.50304425 -0.40710106 -0.41695705
-0.22657147 -0.029831966 -0.26311076 -0.30480856 -0.121020176 0.22124861 0.30327258 0.048572287
0.12857214 -0.30981275 0.045091316 0.045146707 0.0095776245 0.02855811 -0.2583605 0.06779848
-0.04185403 0.051051874 0.42245546 0.13394307 0.23743413 -0.24164276 0.29106572 0.30083942
-0.42977974 0.28348035 0.5111278 0.12529206 -0.26888257 0.261438 -0.06906764 0.0649401
0.11651537 -0.1474203 0.1419275 -0.022058027 0.21634325 0.16732131 0.02507596 -0.06304731
0.32341737 0.038982276 0.20759235 0.08033758 0.29327288 0.3615127 -0.18704332 -0.061681792
-0.13749683 -0.05662295 0.32074967 -0.079715595 -0.36542174 0.05590741 -0.08462555 0.18226299
0.04042065 -0.33215392 0.2099276 0.19611484 0.054071594 0.114019364 0.13890442 -0.19394879
0.31604415 -0.02927368 0.43322763 0.15034214 0.005760763 -0.37799582 0.38691318 0.0884614
-0.11226033 -0.28341773 -0.1345436 -0.22263317 -0.08811044 0.41664445 0.050090607 0.6083325
-0.06707514 -0.054735444 -0.36349276 -0.018666599 0.33255857 0.17360213 0.1583685 -0.40822017
-0.06937413 -0.01018187 -0.28432536 0.013624653 -0.13278049 -0.074695334 -0.046578813 -0.060079303
0.31179795 0.23204702 0.01122825 -0.19165798 0.10897098 0.07757274 -0.20656313 0.1878548
-0.19672188 0.10173882 0.05620608 0.22400953 0.113272 0.11033362 -0.06714617 0.17354503
-0.10421889 -0.2890373 0.021474844 0.18439534 0.20949122 0.36956504 -0.3793895 -0.50621617
0.20086645 -0.17321716 0.51317555 -0.0804122 0.53772575 0.13992092 -0.39642906 0.18699269
-0.19681838 0.29458147 -0.18660258 -0.10737991 0.18777065 0.15777716 -0.005853044 0.51415163

model.layer1.0.downsample.1.weight f4 [32]
00000000: 5012 603f 6d6f 5d3f 2b49 543f 9430 6b3f
00000010: 8131 4b3f 3a6c 353f db23 583f 644e 333f
00000020: 338c 3f3f 5c2a 803f 694b 5b3f 5175 543f
00000030: 9192 423f 1e6d 713f cbf5 583f 857b 583f
00000040: 29ef 383f 1546 623f 6489 543f c931 543f
00000050: 3298 263f 3722 4f3f 4719 6d3f f1bc 603f
00000060: 8120 5b3f 5de6 503f 463a 5c3f a43a 6a3f
00000070: ef87 573f 10ac 503f 451a 573f aecb 673f
0.8752794 0.8649815 0.82924145 0.91871 0.7937241 0.70868266 0.8442971 0.7004149
0.748233 1.0012927 0.8566194 0.8299151 0.7600489 0.94307125 0.8475005 0.84563476
0.7223993 0.88388187 0.8302214 0.82888466 0.6507598 0.8091158 0.92616695 0.877883
0.8559647 0.81601506 0.8602642 0.9149573 0.84191793 0.81512547 0.8402446 0.90545166

model.layer1.0.downsample.1.bias f4 [32]
00000000: 5a76 143e 8bfb 14bd c15e 213d 1d0d c9bd
00000010: 0e0c 72bb 833c 7abc 6749 82bd 43be 623d
00000020: 4dd3 20be 5926 0ebb c780 053e 51b2 66bc
00000030: c918 a7bd 3954 1ebe ab27 bbbc 9241 e7bd
00000040: 2788 963d 9e5e 86bd 1fcb 913d 5318 1dbd
00000050: 8a29 dcbd e441 c03d 1b9e 84bd 849f 73bd
00000060: b49c 90bd 0220 9b3d 716b a63b 4790 313c
00000070: 9636 bdbb 5aa0 fabc 25e3 423d f417 8fbc
0.14498273 -0.036372703 0.039397005 -0.09816954 -0.0036933455 -0.015273216 -0.06361657 0.05535723
-0.15705605 -0.0021690337 0.13037406 -0.0140806 -0.08159024 -0.15461816 -0.022846064 -0.112918034
0.07350188 -0.065610155 0.071188204 -0.038353276 -0.107501104 0.09387568 -0.06475469 -0.059478298
-0.07061139 0.075744644 0.005078726 0.010837621 -0.0057743294 -0.03059404 0.047579903 -0.017467476

model.layer1.0.downsample.1.running_mean f4 [32]
00000000: f34b e3bd 6249 bfbe dfb5 e63f b3b1 1e3f
00000010: 0858 8abd 380f 953f 73c4 8b3e b03a 243f
00000020: d815 663f fa38 aa3f 380f 593d 9913 9a3f
00000030: 98f6 9b3f 4468 bbbc 78b5 5f3f 80a8 2fbf
00000040: 4087 f23e 47da 833f 5928 2bbf 952f 493f
00000050: 93c5 4abf cf03 4bbe 2c09 98bf ad3c 493e
00000060: 8e74 d1be ead6 9abf 830b 85be b9d2 59bf
00000070: ea43 493f f6cd 9c3d ba7a c73f 7c4f 7dbf
-0.110984705 -0.37360674 1.8024253 0.619899 -0.06755072 1.1645269 0.27298316 0.6415205
0.8987708 1.3298638 0.05299303 1.2037231 1.218463 -0.022876866 0.87386274 -0.68616486
0.47368813 1.0300988 -0.6685844 0.7858823 -0.79207724 -0.19825672 -1.1877799 0.19652052
-0.40909237 -1.2096837 -0.25985345 -0.8508716 0.78619254 0.076564714 1.5584328 -0.9894941

model.layer1.0.downsample.1.running_var f4 [32]
00000000: 4e8d 8c3f c3c2 3840 c1fb 733f 4b13 c03f
00000010: f5a6 e23f e744 d23f b81c f03f ce85 b33f
00000020: 474e f63f 3d7f b03f bba7 1440 896b 8f3f
00000030: 17ea ec3f 90af d03f e608 aa3f 9d32 e13f
00000040: 86e6 3640 aab4 4f40 3e80 c43f e11f 883f
00000050: 49fe df3f 7378 c23f 13b3 f93f 6c0b 403f
00000060: 33c8 4240 dae6 dc3f 4889 2240 ff6f e23f
00000070: f594 ab3f 9f41 e63f ab48 da3f 9da4 a63f
1.0980623 2.8868873 0.9530602 1.5005888 1.7707201 1.6427277 1.8758764 1.4025209
1.9242638 1.378883 2.3227375 1.1204692 1.8508939 1.6303577 1.3283966 1.7593571
2.85782 3.2454019 1.5351636 1.0634729 1.7499477 1.5193008 1.9507774 0.7501743
3.0434692 1.725795 2.539629 1.7690428 1.3404833 1.7988776 1.7053427 1.3018986

model.layer2.0.conv1.weight f4 [32, 32, 3]
00000000: 77d3 9ebe 3385 c1bd 025e 343e 7b0c 1ebe
00000010: cd45 48be 19ef 393d cd12 b43e 20e2 143e
00000020: 6558 02be 3e39 78be e03e b4bd 5695 cf3c
00000030: 07e0 58be d686 cc3d 93ff ab3d 15db d93d
00000040: b247 d83d d8be 683e 9608 ea3d 8167 62be
00000050: 1d49 6e3e 067e 303d 124c 38be 62a8 11be
00000060: cb68 933c c6ba 383d d800 803e a610 42be
00000070: 8ea9 10be c7a7 75bd 7086 983e ea94 89bd
00000080: b6ea 123e bb57 f63d 4553 dd3c b77f 4bbe
00000090: cf9f 2dbc a1c4 b8bd dcfb 3dbd fe27 0f3f
000000a0: 2cb2 75be 2992 8c3b 2a28 9d3e a650 5cbe
000000b0: 49c6 9a3d f500 0e3e deec 973d 7f1f 423e
000000c0: 802a 6bbe f498 81be 3a08 1d3e fcee 8e3e
000000d0: 377f 22be 6dcf 003c 2dc8 55be db84 02be
000000e0: 6458 823d 6ba0 5e3d d58f 0abd 88f0 533e
000000f0: 8f30 99bc ac55 0c3e 2867 b23d d25f 7d3a
00000100: bc41 72be 9c00 923d 3fd9 d53d 2817 163e
00000110: 9004 13be 0358 82bb 310c 2d3e aa1f 943e
00000120: 9a34 c1bd 0628 e63c 289b 39bc a740 37bc
00000130: 9129 b0bd a0d5 333e 0ee7 4dbe 615c 6aba
00000140: 384e 913d 3ae0 40be 81dd babe 3a1b 86be
00000150: 9a7c b23c e3b3 4cbe ba34 b3be e102 753e
00000160: 602b d0bd 0fb0 13be e3f1 d4bd 2099 f53d
00000170: d103 abbd e3cf 58be a407 783e 42f4 0a3e
00000180: c69f 4ebe 67bb 753c d1f8 9c3d f28f e9bd
00000190: bf91 f4bc 6560 2b3d ae52 303e d9fe 59be
000001a0: 2b89 a9bd f5f2 06be f9c1 833e 47d7 fc3d
000001b0: 76e6 833e a2ce a43d e622 86bd 853c 6a3e
000001c0: 6b2d 143e 6459 8ebc a97b 8a3e f875 dbbd
000001d0: 2671 7abd ddb1 103d 9fb8 a73d 251e 4dbe
000001e0: af49 d13d 8a08 afbd 1907 63bc 25c5 41be
000001f0: 4dcf b9bd 0f31 9c3e 7b22 a43d 32eb d03d
00000200: 5eae be3e 48d1 36be cb7a dbbd 7de9 05be
00000210: 0a95 e93e cd8a fe3d 95fd 8b3c d5d5 c6be
00000220: 5f5a d2bd c6ca 973e bcaf 1e3e f541 573e
00000230: 0f3a 55bd f83c 1b3e 1d0c 0ebe 1a87 863d
00000240: 7660 083d 9c07 993c 46b4 36bd 8cd9 05be
00000250: 140d 95bc 3460 d13d d22c 063e 6f0e 193e
00000260: e542 0abe 688f 10be 5d5b 773e 4b0d d0bd
00000270: 5c7b 343e 2fce a43e 3a74 40be ed11 9bbe
00000280: ea75 083d d8a8 e23d ad30 febd 8f7f eebd
00000290: cf64 20bd 9673 08bd b4a8 bc3d 5212 e2bd
000002a0: 81b5 463e 927c 023e f1b7 bcbd 4fa0 253e
000002b0: 920c 99be bfca c43d b154 863d dea2 e83d
000002c0: b191 4fbe 5fe1 c93d 5a03 39be ea99 d3bc
000002d0: 58dd 7d3c 8bdb 3d3d 7729 0ebe 2bd0 bd3d
000002e0: b75d 83bd 6052 b53e d671 313d 192d 9a3d
000002f0: 41d5 bfbd 6a27 89bd 8523 00be 6344 e53e
00000300: c381 88be 58e7 813e a8c7 4c3d 7ab7 dcbd
00000310: 21f8 583d 9eae 3e3d a8b0 24be e829 42be
00000320: 3469 873d 8c84 84be 95ce b9be 1b30 9e3d
00000330: 0dae 6e3d 2e46 9e3d 8a68 0e3e 665c b0bd
00000340: 5a39 03be f2a0 79be 19e8 b43e e855 b83d
00000350: 8a88 8abd a030 ee3d 5853 a1bd 11f0 0fbf
00000360: daca df3d 41e1 8dbd 94c2 cfbb 7178 8b3e
00000370: d7ef 13be a9e2 f9be 8f42 dfbc 7f1b 493d
00000380: 0b39 c93c 177d f1bc 3d42 3fbe 2c8d 5fbd
00000390: ded9 5f3e 8ff6 cd3d c2a7 a3bd 6a4e 963d
000003a0: 58af 553d 447b b73e 6de8 a73e b42a 513d
000003b0: 7f5a 223e c817 8abd 326d 673e 55fb 893c
000003c0: 508a 22be 5d2d 813d f3c8 4cbe 9184 03be
000003d0: 497e 7d3c c559 0d3e 8209 b6be 232f dcbd
000003e0: ec55 a63d e8c3 c0ba af3c 8abc f77f 22bd
000003f0: 29df 343d 44de cb3c e6be e13c 1653 543e
-0.3102071 -0.09449234 0.17613986 -0.15434448 -0.19557877 0.045394037 0.35170594 0.14539385
-0.12729032 -0.24240586 -0.08801055 0.025339764 -0.2117921 0.099866554 0.08398356 0.1063749
0.1056055 0.22729051 0.11427419 -0.22109796 0.23270078 0.043088935 -0.17997769 -0.14224389
0.017994305 0.045099996 0.25000644 -0.18951663 -0.1412718 -0.059974458 0.29790068 -0.06717856
0.14347348 0.12028452 0.027017245 -0.19872938 -0.010597183 -0.09021879 -0.04638277 0.559204
-0.23993748 0.0042898846 0.30694705 -0.2151514 0.07557351 0.13867553 0.07418226 0.18957327
-0.22965431 -0.25312006 0.1533517 0.27916706 -0.15868841 0.007861954 -0.20877142 -0.12745993
0.063645154 0.054352205 -0.033828575 0.20697224 -0.018699912 0.13704556 0.08711082 0.00096654624
-0.23657888 0.071290225 0.10441827 0.14657271 -0.14357209 -0.003977777 0.16899182 0.28930408
-0.09433861 0.028095257 -0.011328496 -0.011184848 -0.08601678 0.1756196 -0.20107672 -0.0008940157
0.07094997 -0.18835536 -0.3649712 -0.26192647 0.02178793 -0.19990496 -0.35001165 0.2392688
-0.10164523 -0.1442263 -0.10397699 0.11992097 -0.08350337 -0.21173052 0.24221665 0.1356974
-0.20178136 0.0149982935 0.076646455 -0.114044085 -0.029854653 0.041839976 0.1721904 -0.21288623
-0.08278116 -0.13178618 0.25733927 0.123457484 0.25761765 0.080472246 -0.06549625 0.22874649
0.1447045 -0.01737661 0.2704747 -0.1071586 -0.061143063 0.035325874 0.081895106 -0.2003103
0.10219132 -0.085465506 -0.013856673 -0.18922861 -0.090727426 0.3050618 0.08014389 0.1020111
0.37242407 -0.17853272 -0.1071678 -0.1307735 0.4562152 0.12428818 0.01708869 -0.38835016
-0.10271143 0.2964689 0.15496725 0.21021254 -0.052057322 0.15159976 -0.13871808 0.06568737
0.033295117 0.018680386 -0.044605516 -0.13071269 -0.018194713 0.102234274 0.13103035 0.14946912
-0.1350208 -0.14117205 0.24155946 -0.101587854 0.17625183 0.32188556 -0.18794337 -0.30287114
0.033315577 0.11067361 -0.12411628 -0.116454236 -0.03915864 -0.033313356 0.09211865 -0.110386506
0.19405176 0.12742832 -0.092147715 0.16174434 -0.29892403 0.09608983 0.06559122 0.113591895
-0.2027042 0.09857439 -0.18067685 -0.025830228 0.015494667 0.04635195 -0.13883005 0.092682205
-0.06414359 0.3541441 0.043321453 0.07528133 -0.09366847 -0.06696971 -0.1251355 0.44778737
-0.266615 0.25371814 0.049995095 -0.10777183 0.05297101 0.046553247 -0.16083014 -0.18961298
0.06611863 -0.25882375 -0.36290422 0.07724019 0.058271457 0.077282295 0.13907066 -0.086113736
-0.12814847 -0.24377802 0.35333326 0.0900076 -0.06764324 0.11630368 -0.07877225 -0.5622569
0.10927363 -0.069277294 -0.006340334 0.27240327 -0.1444696 -0.4880574 -0.027253417 0.049098488
0.024563333 -0.029478593 -0.18677612 -0.05457799 0.21860453 0.10056793 -0.07990982 0.07339175
0.052169174 0.35836232 0.32794514 0.051066115 0.15854834 -0.06742817 0.22600248 0.016843477
-0.15873075 0.063074805 -0.19998531 -0.12843539 0.015472003 0.13803776 -0.3555413 -0.10751178
0.08121857 -0.0014706822 -0.01687464 -0.039672818 0.044158135 0.024886258 0.027556848 0.2073482

model.layer2.0.bn1.weight f4 [32]
00000000: ff43 593f 81d1 493f a244 583f 4516 4e3f
00000010: 0557 493f 7f6b 5d3f 7253 643f 4f61 583f
00000020: ed03 6b3f 9e71 433f b8f5 4b3f b762 5d3f
00000030: a910 5b3f 58d7 633f c2ff 5c3f e134 5d3f
00000040: 494b 4a3f d461 563f 05ba 5d3f 0ebc 483f
00000050: 7f64 613f c7a2 3f3f 2157 5f3f 518f 503f
00000060: c1dd 723f 3235 7e3f 8881 693f da5c 4e3f
00000070: b635 6b3f f94b 553f a78a 663f 3d01 483f
0.8486938 0.788353 0.84479725 0.8050273 0.78648406 0.8649215 0.8918983 0.8452348
0.91802865 0.7634524 0.7967181 0.8647875 0.85572296 0.89000463 0.86327755 0.8640881
0.79021126 0.83743024 0.8661197 0.7841195 0.8804397 0.74857754 0.87242323 0.81468683
0.9486962 0.9929992 0.91213274 0.8061043 0.9187883 0.8331905 0.90055317 0.7812689

model.layer2.0.bn1.bias f4 [32]
00000000: 38ba 54bd 925e 8cbd 728e 34be 3ad6 b9bd
00000010: 2f51 4d3c fd42 543d a4b1 08be d2d1 23be
00000020: 3600 b5bd bc55 8abd 931a 0ebd b1ae 9fbd
00000030: a767 c3bd f51a 3dbd 969f 77be 4ce2 b23c
00000040: c33d 9ebd da8d e63d f31a ffbc 06e0 0fbe
00000050: b690 f6bd ef48 49be 603c 18bd 50d4 e4bc
00000060: b7c9 66be a186 003e 5891 033e 2655 9cbe
00000070: 6556 943d 1135 d6bd c2fc c33c ea6c 15be
-0.051935405 -0.06853975 -0.17632464 -0.090740636 0.012531563 0.051821698 -0.13349015 -0.15998009
-0.08837931 -0.06754634 -0.034693312 -0.077969916 -0.095412545 -0.046168286 -0.24181971 0.021836422
-0.07726624 0.11257525 -0.03114078 -0.14050302 -0.1203932 -0.19656728 -0.037166953 -0.02793327
-0.22537886 0.12551357 0.12848413 -0.30533713 0.07243041 -0.1045934 0.023924235 -0.14592329

model.layer2.0.bn1.running_mean f4 [32]
00000000: 78ef b8be 1811 793f 9637 a63e 2b40 25bf
00000010: dda8 af3f f49e b23e b551 873d 0cee f3bf
00000020: 29fb c0bf d735 84bf eb0b 203f bae3 37bf
00000030: 3bbb 72bf 388f b03f ee21 f4be bfb0 db3e
00000040: 23cb 19bf 6a91 813e ea81 af3f e80c 9cbf
00000050: f05c 0a3f 6171 7dbf 8a6c 2cbf 008f e6be
00000060: 3fc2 b43f 0549 c2bf 203a 8fbf ef2b 9cbf
00000070: f898 70bf 6086 a3bd 906a 6dbf 92c0 4c3d
-0.361202 0.9729171 0.32464284 -0.6455104 1.3723408 0.34886897 0.06607381 -1.9057021
-1.5076648 -1.0328931 0.62518185 -0.7183186 -0.9481694 1.3793707 -0.47682136 0.42908284
-0.6007559 0.25306255 1.3711522 -1.2191439 0.5404806 -0.9900113 -0.6735312 -0.45030975
1.4121779 -1.5178534 -1.1189613 -1.2200907 -0.9398341 -0.07984614 -0.92740726 0.049988337

model.layer2.0.bn1.running_var f4 [32]
00000000: 834a 1f40 3d02 c43f 9cff 0e40 2e4c c53f
00000010: 8b77 2140 7a02 0340 8c6e 2b40 1271 dd3f
00000020: 3cbb d43f b744 8840 a200 1840 0ab5 3a40
00000030: 6c69 4440 dd88 4140 e101 cc3f ac58 ef3f
00000040: b0b9 4640 efe3 ed3f f080 0540 a7fd 1440
00000050: 2d1e d83f a745 0440 a68d 833f 4a3f 4040
00000060: 624a 9240 f215 5740 2272 ef3f 991d 3a40
00000070: 4a4c 5c40 67af 1e40 eb83 2040 67c1 5c40
2.4889228 1.5313183 2.2343512 1.5413873 2.5229213 2.0470262 2.6786222 1.7300131
1.6619639 4.258388 2.3750386 2.9172997 3.0689344 3.0239785 1.5938073 1.8698936
3.1050835 1.8585185 2.0859947 2.3279817 1.6884209 2.0667512 1.0277603 3.0038629
4.57158 3.3607144 1.8706706 2.9080565 3.4421563 2.4794557 2.5080516 3.4493043
